explanation/checkpoints/ba_shapes/GCN_2l/0/GCN_2l_best.ckpt (torch_old, 369909 bytes, 6 tensors)

conv1.weight f4 [1, 300]
000000 a5 ce 4b 3d 84 da cc 3d 30 57 c7 b9 a6 5f c9 b9
       0.04975762 0.10002616 -0.00038021198 -0.0003840897
000010 98 ea 95 3e 47 f0 4c 3e e2 69 e5 3c 7e 96 77 b4
       0.29280543 0.20013534 0.02800459 -2.3058416e-07
000020 20 ba 3e 3d 79 c9 58 bb 8f 61 16 ba 75 c4 24 ba
       0.04656422 -0.0033079071 -0.0005736583 -0.0006285378
000030 ad 73 51 3e 41 e0 ca b9 50 ad 54 b9 bf 86 55 3e
       0.20454283 -0.00038695525 -0.0002028246 0.20852183
000040 96 63 1e 3e 0f b0 cb b7 d8 b7 15 3e 00 d4 87 3e
       0.15467677 -2.428147e-05 0.14620912 0.2652893
000050 76 4c 1f bc 96 be 3d 3e 16 ba 69 ba fc 57 4d 3e
       -0.00972282 0.18529734 -0.00089159736 0.20053095
000060 18 96 bb b9 05 53 36 3e 03 ac 1c 3e 50 91 7e 3c
       -0.00035779248 0.17805107 0.15299992 0.015537575
000070 b6 f8 95 be af 40 44 b6 71 bb 66 b6 73 24 a7 3d
       -0.29291314 -2.9243927e-06 -3.4381776e-06 0.08161249
000080 21 3b 7c b7 bc 25 7f 3e 93 bc 13 bd 43 05 ac be
       -1.50341375e-05 0.24916738 -0.03606851 -0.33597764
000090 0c 4f 6b 3e 99 4c 3d 3e 53 bb 11 be a5 29 8a b4
       0.22979373 0.18486251 -0.14231615 -2.5734803e-07
0000a0 da 38 5d 3e 4d b2 25 3e 57 2f 48 3e 0b 6e 6a 3e
       0.21603718 0.16181298 0.19549309 0.2289354
0000b0 36 41 9d bc 07 ea 3a 3d 3e 54 8e bb eb bd cd 3a
       -0.019196134 0.045633342 -0.0043435385 0.0015696859
0000c0 c7 22 c1 b7 ff ca 54 3e b4 36 5f 3e 7b cb 1c b7
       -2.3023587e-05 0.20780562 0.21798211 -9.345701e-06
0000d0 fc 65 34 3e 4e 50 8a 3e 94 3c 29 3e cd 26 63 3e
       0.17617029 0.27014393 0.16527015 0.2218277
0000e0 39 1c 93 b9 b3 65 dd 3d 89 88 61 3e 63 8c ba b9
       -0.00028059052 0.10810413 0.2202474 -0.0003558128
0000f0 96 ac 48 3e 41 df c6 b8 b2 d3 5d bc 97 bd 5b b8
       0.19597086 -9.48296e-05 -0.013539242 -5.2390238e-05
000100 ec a6 7c b4 4f b4 2d 3c 29 63 93 bd bc 2e 10 b4
       -2.3530055e-07 0.010602071 -0.07196648 -1.3428047e-07
000110 35 b4 67 3e 92 0e 88 bb ba 1e 0a b9 dc 89 ad bd
       0.22627337 -0.0041521275 -0.00013172152 -0.0847356
000120 58 8b 4e b8 2f bd 81 3b ec 17 16 3e e3 48 65 3e
       -4.9244e-05 0.00395932 0.14657563 0.22391085
000130 c7 5c 64 3e 74 d8 5c 3e c2 c1 01 ba 63 9b 9f 3d
       0.22301017 0.21566945 -0.00049498316 0.077933095
000140 25 d9 20 b2 57 4f 80 3e d1 3d 42 3e e3 08 e9 ba
       -9.362599e-09 0.25060531 0.18968894 -0.0017779138
000150 1b 3e 5e 3e 1c 09 5d bb 3f bf 39 ba 74 69 51 3e
       0.21703379 -0.0033727353 -0.0007085688 0.20450383
000160 54 61 3c bd ab b9 5c be 59 b8 13 b9 21 af 1e bc
       -0.045991257 -0.21555202 -0.00014087687 -0.009685309
000170 b8 cf 30 3e 08 b8 b0 b9 ab dd fc b8 ee 97 a9 bc
       0.17266738 -0.0003370645 -0.00012057585 -0.020702329
000180 3e ed 75 3c d6 77 43 bd 73 28 82 bb ae 4b 5a 3e
       0.015010176 -0.047721706 -0.003972107 0.21317932
000190 f7 62 1d b4 b3 e3 54 3e 2e 3e 0b ba f6 3a 76 3e
       -1.4657768e-07 0.20789985 -0.00053116947 0.2404593
0001a0 c9 c3 d9 b9 c9 00 1d b4 2d 96 3b b3 27 ea 49 3e
       -0.00041535337 -1.462205e-07 -4.3675914e-08 0.19718228
0001b0 c2 d9 85 bc a8 bc 16 b8 35 0d 29 3e a1 3a 41 3e
       -0.016339187 -3.5938487e-05 0.16508944 0.18870021
0001c0 8f 70 7a 3e 84 d7 3b ba 9c 18 88 3e 38 c7 36 3e
       0.24457 -0.0007165598 0.26581275 0.17849433
0001d0 10 4b 4c 3e 8e 88 4b 3e bc 94 53 3e a7 86 c3 bd
       0.19950509 0.1987631 0.20662206 -0.09547167
0001e0 e0 37 94 b5 0d 4b 76 ba a0 1d eb 3c cf 1c 73 3e
       -1.1043121e-06 -0.0009395339 0.02870065 0.23741458
0001f0 f8 be 32 3e 73 76 5f bb 56 6c 4c 3e fc 05 5d 3e
       0.17455661 -0.00340977 0.19963202 0.21584314
000200 06 2b 37 3e c3 f6 6c 3e d7 3d de bb 2c 3d 30 3e
       0.17887506 0.23141007 -0.006782274 0.17210835
000210 4c 91 4f b8 a9 d6 49 ba 04 45 37 ba 6c 17 73 3e
       -4.9487964e-05 -0.00076995284 -0.000699118 0.23739403
000220 b6 82 1b 3e 78 64 4f 3e 67 5a 82 bc a2 6c 31 3e
       0.15186581 0.2025317 -0.015912248 0.17326596
000230 fe 34 3f 3e 99 b3 46 bb d4 fc 6e 3e 27 5f fd b7
       0.18672559 -0.003031945 0.23338634 -3.0204259e-05
000240 2c 8d 73 3e 61 4b 52 37 08 da 63 be f6 95 45 3e
       0.23784322 1.2534526e-05 -0.22251141 0.19295487
000250 0e 6a 9a 31 d5 3d 68 3e dc da 29 b8 48 69 9a b8
       4.494047e-09 0.22679837 -4.049657e-05 -7.3629024e-05
000260 f1 cc 4c 3b 1c 7b 63 3e 97 75 47 3e 11 4c 57 3e
       0.0031250084 0.22214931 0.1947845 0.21025111
000270 a2 92 3d 3e 50 bc 09 38 e8 2b e0 b8 7d 08 5b 3e
       0.18512967 3.2838725e-05 -0.000106893305 0.21389957
000280 64 19 16 b9 47 46 47 3e f5 39 74 be d4 25 36 bc
       -0.00014314573 0.19460402 -0.23850234 -0.011117417
000290 e0 58 a9 3d ea a9 40 3e f8 14 28 b8 74 88 7d 3e
       0.08268905 0.18814817 -4.007385e-05 0.24759084
0002a0 c1 da 65 3d fa 41 d6 bb 7d 80 34 bb 29 91 b8 ba
       0.056116823 -0.0065386267 -0.0027542405 -0.0014081347
0002b0 a8 f3 82 3e 3b 72 39 3e f7 43 79 3d d8 48 b8 bd
       0.2557652 0.18109982 0.060855832 -0.08998269
0002c0 d6 63 63 3e 69 b8 fb 31 ea c7 83 b6 b7 65 b5 b9
       0.22206053 7.3260265e-09 -3.9273773e-06 -0.00034598794
0002d0 b4 25 db b3 a9 1d 0b b9 63 3b 4d 3e 25 93 c7 bb
       -1.020484e-07 -0.00013267122 0.20042185 -0.006090539
0002e0 b9 ec 69 3e 32 bf 1a be aa b3 7e bc 91 86 7d 3e
       0.22844209 -0.15111998 -0.015545765 0.24758364
0002f0 c8 16 46 3e 18 61 29 3e 4b 31 2a bd 17 d3 51 3e
       0.19344628 0.16540945 -0.041550916 0.2049068
000300 9d 7d b7 32 2b 81 ad b9 e1 eb 09 bb 8f fc 01 bd
       2.1361126e-08 -0.0003309337 -0.0021045136 -0.031735
000310 68 ce 8e 3e 71 80 50 3e ff b9 48 b9 b0 8e b1 ba
       0.2789185 0.20361497 -0.00019142775 -0.0013546553
000320 de c2 df b8 81 6d 69 3e 0b 0b 6b 3e 97 68 a1 be
       -0.000106697655 0.22795679 0.22953431 -0.31525108
000330 d9 48 8b 3e 5f b7 19 3e cf 31 18 b9 bd 4c 81 3e
       0.27204016 0.15011357 -0.00014514405 0.2525386
000340 51 7d 82 3e af 39 40 3e 14 39 8b 38 14 fb 30 3e
       0.25486234 0.18772005 6.638668e-05 0.17283279
000350 58 65 51 3e 9f 23 90 bb fa 44 34 3e a1 89 68 3e
       0.20448816 -0.0043987776 0.17604437 0.22708751
000360 93 44 76 3e 79 66 42 3e 89 d0 56 b7 88 a7 17 3e
       0.24049596 0.18984403 -1.2803947e-05 0.14810002
000370 0e 12 81 3b b1 62 6e 3e 3d ed de 3c a2 db 77 bc
       0.00393892 0.23279835 0.027212733 -0.015128048
000380 6f fc aa b3 ac fb d1 b4 2f 47 43 3e 78 ea 71 3e
       -7.962159e-08 -3.91124e-07 0.19070123 0.23624599
000390 a8 d6 8e 3d f8 e1 98 3e 19 1f 4b 3e db 42 31 bb
       0.06974536 0.298599 0.19836082 -0.0027047906
0003a0 ee 4a 86 3d 25 a7 91 3e 7f ff 92 3d 23 b9 d5 bb
       0.065572605 0.28447834 0.07177638 -0.006522314
0003b0 53 0e 4c 3e b7 33 04 ba 24 7c 85 3d 3e 4f 51 3e
       0.1992734 -0.00050431065 0.065178186 0.20440385
0003c0 d3 2c 8c bb d9 a8 0c 3d c9 53 2e bb 71 3b 69 3e
       -0.0042778044 0.034340713 -0.0026600233 0.22776581
0003d0 69 04 ae 3d 2c b3 c8 b3 19 61 d6 bc 7e 2f 52 3e
       0.08496935 -9.345817e-08 -0.026169347 0.2052593
0003e0 b0 15 97 bd c1 26 61 3e ab 7e 93 3e f4 e6 d9 bb
       -0.073771834 0.2198744 0.28807577 -0.006649846
0003f0 3b 57 c0 bc 5d 93 8e 3e 98 c6 a3 3b bf c3 2e 3e
       -0.023479095 0.27846804 0.0049980395 0.17066859

conv1.bias f4 [300]
000000 0b 37 2b 3e 75 59 b5 3d 5b e8 c8 b9 64 d8 e3 b9
       0.16720216 0.08854953 -0.0003832009 -0.00043458038
000010 36 18 8b be d2 35 55 be c0 b0 17 3e 75 8e b3 33
       -0.2716691 -0.20821312 0.14813519 8.36125e-08
000020 c5 86 0b 3e 7b 69 80 bb 82 9f ad bb df c1 db ba
       0.13625629 -0.0039188243 -0.005298556 -0.0016766152
000030 87 b3 09 be 27 1d 94 bb 69 83 31 b9 bb 3a 47 be
       -0.1344739 -0.004520077 -0.0001692899 -0.19455998
000040 29 24 24 be 5c 88 99 b7 42 8a 1b be cc b2 8d be
       -0.16029419 -1.8302519e-05 -0.1518946 -0.27675474
000050 b1 62 28 3e b2 8f 5d bd 4b d2 2a ba 94 9e b6 bd
       0.16443898 -0.054092117 -0.00065163214 -0.08916965
000060 74 5f b8 b9 4d 78 3e be 07 45 23 be eb 71 29 3e
       -0.00035166333 -0.18600579 -0.159443 0.16547363
000070 09 53 9d 3e 43 00 1d b7 ef 7f ae b6 bb dc bd 3d
       0.30727413 -9.35799e-06 -5.2004975e-06 0.092706166
000080 4e ac 2e b8 16 4f 84 be 77 cc 94 3d 3e d4 a4 3e
       -4.1645304e-05 -0.25841588 0.07265561 0.32193178
000090 36 b1 59 be 2a 6f 32 be 31 ac 12 be 00 1d 8d b4
       -0.21259007 -0.17425218 -0.14323498 -2.6284397e-07
0000a0 aa b8 26 bc ee 93 1d be d0 aa 05 be d8 19 75 be
       -0.010175863 -0.15388462 -0.13053441 -0.2393564
0000b0 ed 8b df bc 2e 00 4a 3d 51 d0 04 bb a7 3a f4 3a
       -0.027288401 0.049316578 -0.0020265768 0.0018633202
0000c0 78 15 55 b8 44 ae 0d be 8f c8 65 be 6a 4b d6 b7
       -5.080315e-05 -0.13836008 -0.22439788 -2.5545905e-05
0000d0 52 d2 f0 bd e5 8e 7d be 92 20 e4 bb a1 98 58 bc
       -0.117588654 -0.24761541 -0.0069618905 -0.013219983
0000e0 25 5c 92 bb dc 42 02 3e fa 3f 6a be 03 ab 10 ba
       -0.004466551 0.12720817 -0.22875968 -0.0005518647
0000f0 84 51 51 be 1e 1b 1c b9 8d 07 25 bc 3c 0f 60 b8
       -0.20441252 -0.00014887421 -0.010072601 -5.341995e-05
000100 f5 81 80 34 f3 34 f9 3d 06 ce e7 3c f4 a1 88 32
       2.3936414e-07 0.121683024 0.028296482 1.5906132e-08
000110 b5 70 6f be fe 6a 4c bb 0f a0 30 bb 4d c1 b3 bd
       -0.23382838 -0.0031191702 -0.002695087 -0.087771036
000120 f8 3a 53 b8 0e 14 05 bd 28 6a 1c be 16 5d 6e be
       -5.036124e-05 -0.03248983 -0.1527487 -0.23277697
000130 04 85 70 be 5e bb ed bc e3 e8 a5 bb 90 39 2a 3e
       -0.23488241 -0.029020008 -0.0050631627 0.16623521
000140 b7 c5 6d b1 3d 67 85 be 23 31 36 be a8 50 ee ba
       -3.4600427e-09 -0.26055327 -0.17792182 -0.0018181996
000150 7b 9c 13 be cb 53 4d bb 35 57 cc ba 43 e4 c7 bd
       -0.14415161 -0.0031330462 -0.0015589955 -0.09760334
000160 c5 80 09 3e e1 e8 61 3e 28 f7 a8 b9 d6 ad eb bb
       0.13428028 0.22061493 -0.00032227603 -0.0071923537
000170 38 58 39 be 7b 85 c8 ba 6c 93 55 b9 67 76 9b bc
       -0.18100059 -0.0015298569 -0.00020368182 -0.018977357
000180 04 6a 26 3e 27 ab 5e bd 69 05 6f bb 95 cb cb bd
       0.16251379 -0.054362442 -0.003647173 -0.099509396
000190 30 11 30 b4 1e d6 49 be 85 89 05 bb 27 53 7e be
       -1.639753e-07 -0.19710585 -0.0020376157 -0.24836408
0001a0 2d a9 ce b9 f2 6a 12 b3 de 19 29 b3 d9 ac 39 be
       -0.00039417428 -3.409054e-08 -3.9371905e-08 -0.18132342
0001b0 5c 9a 8b bc 72 53 12 b8 aa dd 20 be 3f cf 47 be
       -0.017041378 -3.4886827e-05 -0.15709558 -0.19512652
0001c0 44 bd 82 be 2a 89 62 ba 2e 32 7b be 2d da 3f bd
       -0.25535023 -0.0008641655 -0.24530861 -0.046838928
0001d0 ec df 84 bd 18 ff 3c be 25 ec 47 be 91 ad c2 bd
       -0.06488022 -0.18456686 -0.19523676 -0.095057614
0001e0 07 09 99 b5 e6 c2 30 bb 8c ae 36 3e 74 e1 fa 3c
       -1.1402016e-06 -0.0026971637 0.17840022 0.030625083
0001f0 d0 17 23 be 5e f7 0a bb dd 27 07 be 06 7b 45 bd
       -0.15927052 -0.0021204571 -0.131988 -0.048213027
000200 50 5f dd bd 38 42 76 be 8a c5 a1 3d 15 38 3b bd
       -0.10809195 -0.24048698 0.07899006 -0.04570778
000210 6f 0e 14 bb ae fd 28 ba 70 7f e5 b9 9c f8 7a be
       -0.002259161 -0.00064464926 -0.00043773232 -0.245089
000220 50 a2 21 be be b8 3e be a8 78 89 bc 84 f5 25 be
       -0.15784574 -0.18625161 -0.016781166 -0.16206938
000230 de 88 34 be 32 9c 20 3e 78 21 63 be 9c 21 07 b7
       -0.17630336 0.15684584 -0.22180736 -8.054452e-06
000240 5f 62 7f be a8 55 10 ba db 8a 68 3e 5b 33 04 be
       -0.2493987 -0.0005505928 0.22709219 -0.12910216
000250 4a 7a 6a b4 23 86 5a be 6b c6 9d b9 72 b4 a0 b8
       -2.1837437e-07 -0.21340232 -0.00030093206 -7.663005e-05
000260 fd 7e 91 bc c4 27 58 be d3 54 3a be 45 d0 46 be
       -0.017760748 -0.2110892 -0.1819642 -0.19415386
000270 44 12 2f be 8a 11 2c bb ab 9f 37 b9 76 16 4e be
       -0.17096812 -0.0026255571 -0.00017511721 -0.20125756
000280 c8 00 4c b9 4d fb 3a be 42 14 79 3e ee 47 22 3e
       -0.00019455247 -0.18259926 0.24324134 0.15847751
000290 55 cb 26 3e 17 b8 ff bd dd 5a 83 b9 d3 3d 6b be
       0.16288503 -0.12486284 -0.00025053966 -0.22972803
0002a0 98 b0 99 bd 36 ab b2 bb e2 9e 37 bb b6 80 af ba
       -0.07504386 -0.005452539 -0.0028018286 -0.0013389799
0002b0 11 8a 87 be 0d 25 f7 bd 99 50 5b 3d 24 f5 b7 bd
       -0.26472524 -0.12067614 0.05354366 -0.08982304
0002c0 79 e4 10 3d b7 d4 e0 b3 e6 e2 86 b6 70 8b 1e bb
       0.03537414 -1.04695054e-07 -4.0199257e-06 -0.0024191998
0002d0 55 96 84 b3 fc 77 19 b9 e8 25 09 be f1 60 df bb
       -6.174074e-08 -0.00014635915 -0.13393366 -0.0068169762
0002e0 e1 1f 74 be 62 d0 1a be ce 24 85 bc b5 27 6a be
       -0.23840286 -0.15118554 -0.016252901 -0.2286671
0002f0 eb 3c 39 be 1d 95 b4 bd a6 5f 29 bd a5 0c 5a be
       -0.18089645 -0.088175036 -0.041350983 -0.21293886
000300 bb e2 b5 b3 41 36 07 bb f8 16 31 3e b4 a8 20 3e
       -8.469711e-08 -0.0020631703 0.17293918 0.15689355
000310 66 7a 84 be 47 10 3e be ad 22 e9 bb ac 01 a9 bb
       -0.25874633 -0.18560897 -0.0071147294 -0.00515767
000320 c7 40 e5 b8 9d 0b 57 be 0b 94 73 be 06 67 a8 3e
       -0.00010931637 -0.21000524 -0.23786943 0.328911
000330 60 48 84 be 6d 1c 20 be 91 c7 1d b9 98 43 86 be
       -0.25836468 -0.15635844 -0.00015047031 -0.26223445
000340 8e 44 88 be a3 c0 46 be b3 af fc 37 fc 01 3a be
       -0.26614803 -0.19409423 3.0122557e-05 -0.1816482
000350 66 0c 5e be 81 3e 4e bc 47 45 3b be 50 34 71 be
       -0.21684417 -0.012588144 -0.18288146 -0.23555112
000360 e1 bf 7f be eb 32 33 be 61 d4 1b b7 ec be cd bd
       -0.2497554 -0.17499892 -9.288168e-06 -0.10046181
000370 70 fa 20 bc db 24 77 be 87 d6 9b 3d 14 7b 6f bc
       -0.009825334 -0.24135153 0.07609277 -0.014616746
000380 51 7a 57 b3 cf 0b cb b4 a5 fc a7 bd e1 42 7b be
       -5.0169835e-08 -3.7820288e-07 -0.08202485 -0.24537231
000390 12 e0 be bd 49 4f 8d be 09 98 52 be 8d a3 07 bc
       -0.09320082 -0.27599552 -0.2056581 -0.00827874
0003a0 02 f4 36 3e 2a 13 86 be dc 76 25 3e 92 13 63 bb
       0.17866519 -0.26186496 0.16158623 -0.0034649116
0003b0 bd d8 52 be 50 43 9f ba d9 6d 21 3d 23 26 45 be
       -0.20590492 -0.0012150798 0.0394114 -0.19252829
0003c0 85 15 8d bb e8 21 37 3e 1d 66 5f bb a6 d3 72 be
       -0.004305544 0.17884028 -0.0034087964 -0.2371355
0003d0 74 55 39 3e 61 7b eb b3 83 dd 15 3e 2c d0 0b be
       0.18099004 -1.0965483e-07 0.14635281 -0.1365363
0003e0 ca e3 f7 3d b5 6a 6a be a0 79 99 be a8 5c b7 bb
       0.12103994 -0.22892268 -0.29975605 -0.0055957623
0003f0 71 b8 ba bc b5 14 84 be c9 90 08 3e 69 d2 ea bd
       -0.022793027 -0.25797048 0.13336481 -0.11465914

convs.0.weight f4 [300, 300]
000000 d5 a1 0b bd 7a 8a 57 3d d8 c7 b5 3d 50 c9 ed 3d
       -0.034089882 0.052622296 0.08876008 0.11610663
000010 47 d7 5a bd 79 45 bd 3d 7d 6b af b7 73 f2 14 b6
       -0.05342796 0.092417665 -2.0911679e-05 -2.2194843e-06
000020 50 04 09 aa 8e 8c ef ab 77 3f ba a9 ee d9 a2 aa
       -1.216954e-13 -1.7020983e-12 -8.271069e-14 -2.89282e-13
000030 4a 0b 74 bd 30 f5 37 3d 30 2e 96 2c c8 a7 9f b9
       -0.05958108 0.044911563 4.2683843e-12 -0.0003045185
000040 26 2f 8e 2b 5c 1d ad 3d e0 ab bc 3d 6e 8d be bc
       1.0102793e-12 0.084528655 0.0921247 -0.023260798
000050 a1 40 46 3d 8f 25 27 ab 81 df 55 3b 02 7d 6c ab
       0.04840148 -5.938244e-13 0.003263444 -8.4017526e-13
000060 6e bb 08 aa 83 ed 00 3c d3 3e 1b ba 69 88 a9 3c
       -1.2144254e-13 0.007869127 -0.00059221423 0.020694928
000070 81 0b bd 39 fd 41 ab 2d 01 20 c3 ba 4c a7 b7 3d
       0.0003605746 1.9469754e-11 -0.0014886857 0.08967456
000080 a8 a3 17 35 fc e2 5e bd 61 a1 e2 3d c3 87 45 bc
       5.6490035e-07 -0.054415688 0.11065937 -0.012056294
000090 88 5a 06 ac 9b 68 5b ab ce 34 33 38 31 3a 4f ba
       -1.90928e-12 -7.79496e-13 4.2726104e-05 -0.00079050945
0000a0 c1 0c c5 3d c2 f6 15 bb 1c 92 d2 a8 96 c9 94 2a
       0.09621573 -0.0022882675 -2.3378048e-14 2.642996e-13
0000b0 c9 a8 2a ba d7 8c 91 bb fa 9d 11 bd 46 44 03 2c
       -0.00065101363 -0.0044418382 -0.03555105 1.865412e-12
0000c0 34 b3 ff 3d 8f 42 b5 ba a3 7a a2 bd c2 df 9b 3d
       0.12485352 -0.001382904 -0.07933547 0.07611038
0000d0 76 24 8a 39 59 96 f2 29 8d 00 fd 3c 69 0b 42 33
       0.00026348577 1.077304e-13 0.030884052 4.5179522e-08
0000e0 9d 05 78 ab 3b dd 34 bd ce b1 4a bd 45 bf dc 2b
       -8.811509e-13 -0.044156294 -0.049485974 1.5685028e-12
0000f0 7d 34 8b 3c df d2 20 bc 79 cb 67 2e 10 3d 44 3d
       0.016992802 -0.009815901 5.270404e-11 0.047909796
000100 ba 3c ab bd 48 a7 4d bd f1 46 c5 3d 84 ed 43 37
       -0.08361192 -0.05020836 0.096326716 1.1678207e-05
000110 d0 44 73 3b 0c a4 da bc 2a 6e 88 aa 79 2f 18 3e
       0.0037119873 -0.026689552 -2.4234895e-13 0.1486186
000120 76 9a 1a 3d 16 47 2c 3d 7a 27 86 2a 59 50 2a 27
       0.03774496 0.04205998 2.3830574e-13 2.3635796e-15
000130 a8 49 ed 3d 56 12 09 bb 75 75 c2 3d eb 95 ab bc
       0.115863144 -0.002091547 0.094950594 -0.02094551
000140 5c a4 fc aa 46 14 5d bc c1 7d 26 2b d0 c0 76 bc
       -4.487824e-13 -0.013493603 5.9149566e-13 -0.0150606185
000150 96 4b 6e 2a 4e 02 35 ab ab 89 cd aa c6 f8 a4 bb
       2.116487e-13 -6.4307316e-13 -3.6510842e-13 -0.005034539
000160 b4 2c 70 b6 f4 8b cc b9 26 b8 66 ba 66 bc 25 3e
       -3.5788808e-06 -0.00039014185 -0.0008801244 0.1618515
000170 fb 47 10 3d 00 db a7 2a ce a4 26 b8 12 dc 17 2e
       0.035224896 2.981712e-13 -3.973097e-05 3.4528887e-11
000180 2c 25 4c bd 3e ef ed 3d a0 89 9f 2e 8f 88 4f bb
       -0.049840137 0.116178975 7.25493e-11 -0.0031667089
000190 2b a0 1c 3a c3 3a ad 39 c9 e9 55 bd d7 28 43 3d
       0.00059747946 0.00033040912 -0.052224908 0.04764637
0001a0 4d 4c e7 b5 9f 76 d5 bb f3 38 22 3d 59 1c cb bd
       -1.7233048e-06 -0.006514385 0.039605092 -0.09917516
0001b0 66 13 9f bd d6 92 45 38 b8 42 c6 af 5c e1 33 2b
       -0.07767372 4.710521e-05 -3.6063397e-10 6.3906324e-13
0001c0 bd da 86 a8 cb 3b 95 3b 82 69 dd 3d 4b 9d 9f ab
       -1.4971851e-14 0.004554247 0.1081114 -1.1341287e-12
0001d0 af a8 03 bd ea 41 0b 3d f0 d4 0d b4 90 70 a0 2a
       -0.03214329 0.033998407 -1.3209115e-07 2.8499815e-13
0001e0 61 68 22 3e 47 92 07 3e 29 63 19 3a 4c 06 6b aa
       0.1586013 0.13239394 0.0005851263 -2.0874378e-13
0001f0 b4 1f 2d bd 62 56 23 2a 13 d3 2b 3c c2 fa 94 3d
       -0.042266563 1.4507278e-13 0.010487336 0.07274391
000200 7b 8b b0 b7 51 3d db 3b 1c 50 42 3c dd f2 a6 2b
       -2.1045786e-05 0.006690659 0.01185992 1.1862418e-12
000210 e9 88 8c 3c 31 48 9f b7 73 53 94 ab 13 f0 94 ab
       0.017155128 -1.8987894e-05 -1.0539194e-12 -1.0582666e-12
000220 3e 8b 7a bc 92 0d f8 3d 68 d3 1a b7 69 3a d6 3c
       -0.015291987 0.12111963 -9.228337e-06 0.026150899
000230 48 d0 06 bd a2 de 1c bb 20 76 ef 3c 67 d1 b1 bd
       -0.032913476 -0.002393641 0.029231131 -0.086825185
000240 f6 62 83 bc d5 ea 8a 2b 98 21 29 bc bf 33 17 2c
       -0.0160384 9.870669e-13 -0.010322951 2.1487115e-12
000250 17 7b 54 ab d6 fd c9 bd 8f f8 3d bd 4a 30 70 3d
       -7.548835e-13 -0.098628685 -0.046379622 0.058639802
000260 c0 fb 22 2a 9b 1d 22 2b ca b8 5f 2a c1 62 36 3c
       1.4475834e-13 5.759505e-13 1.987049e-13 0.011131943
000270 dd 3e 9d b7 39 f4 aa bc 0d 81 a0 36 54 c1 97 29
       -1.8745131e-05 -0.020868408 4.783395e-06 6.739284e-14
000280 e4 ed 7d bd f3 74 3e ba b6 22 f3 bc 77 f5 67 3c
       -0.06199445 -0.00072653516 -0.029679637 0.0141576445
000290 88 70 00 3d a6 1a 15 3c 6a 43 85 bc d7 eb 2d 36
       0.03135732 0.009100592 -0.016267497 2.5916286e-06
0002a0 05 4f 28 3c 1a 80 79 3d f7 7b 81 bd c1 03 b9 bc
       0.010272746 0.060913183 -0.063224725 -0.022584798
0002b0 ac 0a 37 aa 3b 35 8e ab b3 da 31 30 b0 ed bc bb
       -1.6257368e-13 -1.0104481e-12 6.4703015e-10 -0.0057656392
0002c0 d5 b1 e4 2a 1b 22 4a b0 5b 3d 1c 3e cc 55 ee aa
       4.0624332e-13 -7.353564e-10 0.1525778 -4.2336826e-13
0002d0 2f a7 39 3e 87 27 f8 bb ab eb 6a 2a 2f a8 19 3e
       0.18130182 -0.0075730714 2.0865139e-13 0.15005563
0002e0 15 af 0a 35 39 a0 ee 3c 04 4f 82 2b 9d 0a 8f 3d
       5.1663784e-07 0.029129134 9.258987e-13 0.06984446
0002f0 5c 04 a8 3d db 0d 30 ba e3 6e eb 2b 96 ba 32 bd
       0.082039565 -0.0006715932 1.6728532e-12 -0.043634973
000300 fe 6e 7a 2b 92 93 dc 2b 7e c3 ef 2b e0 15 eb 3d
       8.8971875e-13 1.5672899e-12 1.7036231e-12 0.11478782
000310 b1 db 8f bd ff c9 f2 3d 0f 21 90 2b 05 ca c9 3b
       -0.07024325 0.11854934 1.0240991e-12 0.006158116
000320 84 42 9c ad 01 9f 21 b8 c8 71 ab 3d 84 1e 1a 3d
       -1.7764686e-11 -3.8533475e-05 0.083713114 0.03762676
000330 c1 45 20 3c f7 12 b9 37 e0 af fc 3b ab 0a 6f bc
       0.009782256 2.206255e-05 0.0077113956 -0.014589946
000340 e4 bb f1 3c cc b6 cb aa 8a a1 8a b7 87 6b 3e bb
       0.029508539 -3.6186885e-13 -1.6526104e-05 -0.002905579
000350 01 40 a0 3b 15 f3 7e 3c 38 7f c7 ab 64 81 02 38
       0.0048904424 0.015560885 -1.4175111e-12 3.111492e-05
000360 1d 04 7c bb 4d 56 f0 38 96 8b 5a 3d 2e 0c d4 ba
       -0.00384546 0.000114601666 0.053355776 -0.0016177946
000370 24 d1 51 b0 15 94 88 b9 6f 06 f6 3c d8 30 d8 3d
       -7.6330964e-10 -0.0002605027 0.030032365 0.10556191
000380 b0 c9 dc bc 7a d8 04 ac 29 6c ff ba d0 e9 b8 ab
       -0.02695164 -1.8878497e-12 -0.001948719 -1.3138882e-12
000390 ff 2c 32 3c 84 08 89 bb 14 0c 2d 39 a5 0f 74 3c
       0.010874986 -0.0041819233 0.00016503065 0.014896308
0003a0 e2 58 84 bd ba 6e 88 2b a6 28 c2 2f 65 53 90 b7
       -0.064622656 9.694114e-13 3.5317277e-10 -1.7204971e-05
0003b0 2f a7 0c ac 8d 50 0e 3c 2e b8 8a 3c 9e 2d 41 bb
       -1.9988002e-12 0.008686197 0.016933527 -0.0029476653
0003c0 a3 3d b8 2b a9 b2 e6 39 05 a8 ff 3d 84 3a 02 b8
       1.3091094e-12 0.0004400213 0.12483219 -3.1048912e-05
0003d0 6a d9 9d 3d 05 9b b2 bb f0 0c 07 ac 81 8f de aa
       0.07707484 -0.0054506087 -1.9191836e-12 -3.9534698e-13
0003e0 01 84 26 ab d2 a0 13 3d 39 18 1b 2b 89 95 15 2b
       -5.915824e-13 0.036042042 5.510068e-13 5.3142956e-13
0003f0 93 2a bb 3c 0c 82 0d bd d9 91 4a 3d 3d 2e e6 3d
       0.02284745 -0.03454785 0.049455497 0.11239288

convs.0.bias f4 [300]
000000 e1 2d 9c 3e b8 97 01 be b9 df c4 be 3c e0 f4 be
       0.30503753 -0.12655532 -0.38451937 -0.47827327
000010 3b 3f 14 3f af 23 e4 be 09 ad 27 ba b1 dc ac b6
       0.5790898 -0.44558474 -0.00063963287 -5.1516913e-06
000020 cc 10 d0 ba 13 89 0c bb bc c1 56 ba 7d b2 e3 b9
       -0.0015874146 -0.0021444007 -0.0008192321 -0.00043429798
000030 80 cd 18 3f 9e 29 f8 bd 22 14 37 ba 1e 46 a9 b9
       0.5968857 -0.12117313 -0.0006983896 -0.00032286433
000040 a4 ad 31 b9 aa db 8f be 90 ba 30 be 1a 1a 9f bd
       -0.00016944722 -0.28097278 -0.17258668 -0.0776865
000050 13 78 61 be 4c a6 8d bb da 8f 77 3e 75 f7 43 b9
       -0.22018461 -0.0043228026 0.24175969 -0.00018688834
000060 b5 2c af bb a1 56 50 bd 06 51 07 bb 81 61 19 bd
       -0.0053459057 -0.050863866 -0.002064766 -0.037446503
000070 3f fa 65 ba 1a 04 24 ba cc 02 85 bd 43 ba b0 be
       -0.00087729463 -0.00062567147 -0.06494674 -0.34517106
000080 df 35 85 b7 b7 ff 05 3f 93 86 ef be f8 2f 39 3e
       -1.5879921e-05 0.52343315 -0.4678236 0.18084705
000090 a8 53 30 bb 44 6c d0 ba 31 13 d9 36 c5 33 86 bb
       -0.0026905332 -0.0015901406 6.469338e-06 -0.004095527
0000a0 d2 65 ca be 41 66 63 bd 4f 0f 0a b8 54 65 97 b8
       -0.39530808 -0.05551744 -3.291602e-05 -7.219115e-05
0000b0 40 e1 4c ba c6 12 1e 3a 3e 4d bf 3e f2 ed 27 b8
       -0.0007815547 0.0006030019 0.3736362 -4.0037507e-05
0000c0 c7 53 99 be 60 19 14 3e fb d3 25 3f fa 28 a5 be
       -0.2994673 0.14462805 0.6477658 -0.32257825
0000d0 ca fc 1f bb a7 31 51 b9 15 05 b1 bd de 1b f1 b5
       -0.0024412149 -0.0001995029 -0.086435474 -1.796401e-06
0000e0 b5 6e 42 ba e2 64 ce 3e aa a7 05 3f a6 cd b5 b9
       -0.00074170093 0.40311342 0.5220896 -0.0003467623
0000f0 f6 07 97 3c 99 33 7e 3e 80 e0 97 b6 55 9c da bd
       0.018436413 0.2482437 -4.526286e-06 -0.10674349
000100 e2 9e 12 3f a1 94 03 3f d5 81 c4 be 73 76 51 b8
       0.57273686 0.51398665 -0.38380304 -4.9939797e-05
000110 18 7e df 3e 0e 21 a7 3e f2 1f 9a ba 1d 02 33 bf
       0.4365089 0.32642406 -0.0011758788 -0.699251
000120 59 03 3c bc 6e 7e d1 bd f1 96 67 bb ed 6c 8a b3
       -0.0114754075 -0.10229193 -0.003533777 -6.445939e-08
000130 76 38 15 bf 3d de 90 bc 91 b7 ba be 51 66 0a 3f
       -0.5828928 -0.017684096 -0.36468175 0.5406237
000140 9e 9f d4 b5 2c 3d 94 3e 78 07 54 b9 b3 ca 89 3e
       -1.5841686e-06 0.2895292 -0.00020220678 0.2691246
000150 bb 3b d5 ba 78 6c 08 b9 9d 2f 69 b9 38 dc 96 bb
       -0.0016268411 -0.00013010378 -0.00022238349 -0.004603889
000160 c5 87 1a b8 cb 55 3e b9 4e 2d 39 ba f0 10 44 bf
       -3.6842906e-05 -0.00018151772 -0.0007063941 -0.76588345
000170 c1 ce 5d 39 e3 3f c1 b5 c1 79 7e 39 08 6b fd ba
       0.00021153224 -1.4398214e-06 0.00024268685 -0.0019334266
000180 90 83 e9 3e 51 30 ef be d6 3d 1c b8 86 8b 7d bc
       0.45608187 -0.4671655 -3.7250888e-05 -0.0154751595
000190 2e 1f c5 bc 9f 6b cf ba 38 65 ab 3e db 78 3f bd
       -0.02406272 -0.001582492 0.3347566 -0.046746116
0001a0 dc 21 1a b6 b8 a9 0a 3e cb 54 1b be a2 c4 22 3f
       -2.2967497e-06 0.13541305 -0.15169065 0.6358129
0001b0 3d ac 01 3f e2 8a fa b7 45 c3 19 b9 dd 43 b7 bb
       0.5065344 -2.9866995e-05 -0.0001466396 -0.0055928067
0001c0 2c c8 52 b6 5c a4 8c 3e 74 30 c7 be 1d b3 5a ba
       -3.1408954e-06 0.27469146 -0.38904154 -0.000834273
0001d0 62 d9 b0 3e 6c 78 0d bd 70 70 53 b9 44 ea 31 bb
       0.3454085 -0.03453867 -0.00020164414 -0.002714769
0001e0 26 af 3c bf a1 8e 08 bf da 7e 74 bb 90 c1 72 b8
       -0.73704755 -0.53342634 -0.0037307055 -5.7877565e-05
0001f0 06 07 05 3f 7d 2b c1 bb 41 62 c2 3d d3 41 a5 be
       0.5196384 -0.005895077 0.09491397 -0.32276782
000200 29 9f 91 b8 f4 82 02 3e d6 d1 86 3c 43 8c 05 b7
       -6.943785e-05 0.12745267 0.01645748 -7.960075e-06
000210 d4 b9 dc 3c 6b ac 3b ba d9 b9 0e bb b1 67 a9 b7
       0.026944079 -0.0007159176 -0.0021778254 -2.0194655e-05
000220 3e 77 ee 3e 61 ff 0a bf dd ed 8a b7 e8 33 9c bd
       0.4657535 -0.5429593 -1.6561646e-05 -0.07627088
000230 64 46 e3 3e 06 32 d5 ba 60 04 81 bd 1d 39 0d 3f
       0.4438964 -0.0016265518 -0.062996626 0.5516527
000240 ff 4e 0e bc f4 19 e4 b9 98 f4 80 3e a9 c2 99 b3
       -0.008685826 -0.00043506885 0.2518661 -7.160026e-08
000250 de 26 4b b2 84 b6 4b 3f 09 f7 02 3f 61 60 11 be
       -1.18249925e-08 0.7957537 0.51158196 -0.14196922
000260 88 ff b3 b9 3a 30 05 b5 b5 f9 3f ba 30 11 ca 3d
       -0.00034331926 -4.961654e-07 -0.0007323281 0.098665595
000270 cb 57 eb 36 4b ac 84 3e 5f 61 17 b8 8d 9c 89 ba
       7.013766e-06 0.259127 -3.609189e-05 -0.0010498926
000280 6c 89 2a 3f 36 ba 74 bb 14 f2 c2 3e a6 7a 8e 3c
       0.6661594 -0.0037342436 0.38075316 0.017392468
000290 7a 75 be bc 6e 9e c6 bc b6 13 2d 3e 03 20 17 b9
       -0.023249377 -0.024245467 0.1690205 -0.00014412407
0002a0 da 4d 0e 3e 7b 50 90 be c8 56 30 3f 5f 60 87 3e
       0.13896886 -0.28186402 0.6888242 0.26440713
0002b0 16 75 1e b8 eb 54 b3 b8 76 15 71 b7 39 5f d9 bc
       -3.777918e-05 -8.551202e-05 -1.4369716e-05 -0.026534664
0002c0 3b 98 8a b9 fa 5d ac b7 63 ab 3f bf d9 b0 15 b6
       -0.00026434832 -2.0547759e-05 -0.7487089 -2.230567e-06
0002d0 76 e3 5f bf 8f 39 62 3e c8 e1 5c b9 ea 6b 36 bf
       -0.8745645 0.2209227 -0.00021064945 -0.71258414
0002e0 b1 f0 fd ba fc cc 32 bc 59 b6 af b6 94 95 4f be
       -0.00193741 -0.01091313 -5.2366345e-06 -0.20271903
0002f0 51 9f ac be 01 ae 22 3e 95 b0 ed b8 5f 45 f1 3e
       -0.337153 0.1588669 -0.000113339316 0.47123238
000300 af f4 3e b7 3c cd 81 bb da 73 0b bb 5f 9c 01 bf
       -1.1381852e-05 -0.0039612334 -0.002127877 -0.5062923
000310 4e 4e 3a 3f 46 a3 fa be 77 53 24 b9 ce ec 0b 3b
       0.72775733 -0.48952693 -0.00015671352 0.0021350863
000320 be 6d 22 b9 69 69 f0 b7 2c 1a 95 be 13 1e f2 3c
       -0.00015490406 -2.8659315e-05 -0.2912153 0.029555356
000330 47 f3 61 bd 7d 88 ab b6 99 8a 95 3d 62 61 ae bc
       -0.055163648 -5.1120865e-06 0.07301826 -0.02128667
000340 2e c1 5a bd 01 f9 f7 b5 03 67 11 b9 35 3c 16 3e
       -0.053406887 -1.8475404e-06 -0.00013866652 0.14671405
000350 78 4b b2 3d 48 ce 5b 3d 9e c9 83 ba b2 e5 11 ba
       0.08705801 0.053663522 -0.0010054593 -0.00055655383
000360 a5 af 6a bd 3e a8 18 bb fd b8 66 be cc fa 83 3e
       -0.057296414 -0.002329364 -0.22531505 0.2577728
000370 44 e7 29 b9 bc d5 bb ba e9 8c d0 bd d8 e0 ba bd
       -0.00016203249 -0.0014330666 -0.101831265 -0.09124917
000380 9f f3 a9 3e e1 fd 6a b9 5b cc a6 b8 3c cd b3 bb
       0.3319368 -0.00022410556 -7.953561e-05 -0.0054871123
000390 e7 9e 5c 3d c4 df ac 3e ef d3 2b 3e 35 7b 03 3e
       0.05386248 0.3376447 0.16780065 0.12839969
0003a0 f5 f1 18 3f c7 45 3e bb eb 61 f7 ba 38 5f 8e b8
       0.597442 -0.002903329 -0.0018873786 -6.7888235e-05
0003b0 f0 bc a9 b6 79 30 d0 3c 76 af d4 bc 0c 59 50 bc
       -5.0585877e-06 0.025413739 -0.025962573 -0.012716543
0003c0 cb 0f 00 b8 4f a8 20 ba 3a 0a 16 bf 5f 4b e7 b7
       -3.0532286e-05 -0.00061285956 -0.58609354 -2.7572443e-05
0003d0 4b c6 f0 bd 1d 70 e1 bc 2d d7 ad bb a7 41 ea b4
       -0.117565714 -0.02751928 -0.005305192 -4.3633665e-07
0003e0 18 4a 01 ba 31 3c 9c bc d6 51 ad ba 7c ef 16 ba
       -0.00049320003 -0.01907167 -0.0013223242 -0.0005757732
0003f0 40 fa a3 bc e3 15 0f bd 64 c9 5f 3d ab 6b 0e bf
       -0.02001679 -0.034932982 0.05463542 -0.5563304

ffn.0.weight f4 [4, 300]
000000 0c 21 45 bf 5a 9f bb 3e d7 d0 2a 3f af 0e a5 3e
       -0.7700355 0.36645013 0.66724914 0.32237765
000010 e1 b1 22 3f 14 2e 2b 3e 8f 9d f8 b7 0e 42 cf 33
       0.6355267 0.16716796 -2.9637273e-05 9.651204e-08
000020 70 2c 70 3b b7 1d a1 38 08 2b 2d 38 a9 22 99 ac
       0.003664758 7.682613e-05 4.128649e-05 -4.3523696e-12
000030 cc f2 09 3f bd 70 a6 3e 4e 9e 29 38 6d 90 5a 37
       0.53886104 0.32507887 4.0440173e-05 1.3027439e-05
000040 ac 37 ad 2a 30 7d 7a 3f b7 59 5b 3f 7f 96 f0 ba
       3.0769603e-13 0.9784727 0.8568377 -0.0018355398
000050 d9 31 72 bf 55 79 83 38 40 c5 be 3e 4e bf 3c 38
       -0.9460731 6.2691666e-05 0.37259865 4.500086e-05
000060 2d 9b 12 39 fe 13 83 3b 3f 57 14 b9 59 6f f4 bb
       0.00013981453 0.004000186 -0.00014146882 -0.0074595627
000070 70 a4 d9 39 14 c1 b2 3b c0 56 b6 ba 41 ba b1 3e
       0.0004151198 0.0054551456 -0.0013911352 0.34712413
000080 07 10 ad 35 d3 cf f0 3e d9 f4 07 3f 33 3d 00 3f
       1.2894169e-06 0.47033557 0.5310798 0.5009338
000090 a2 c3 04 36 60 a3 91 3a 50 ee 08 ba f8 b3 d8 3a
       1.9783406e-06 0.0011111312 -0.00052234996 0.0016533127
0000a0 71 f3 a3 3e 3e df 52 b7 80 74 10 3c 33 ff 7c 2f
       0.3202167 -1.2568953e-05 0.008816838 2.3009931e-10
0000b0 c6 b7 a0 b8 82 fa ca 3c 5a 55 5a 3f 4f 62 75 3b
       -7.663625e-05 0.024777655 0.85286486 0.003744263
0000c0 1d ce ed 3e d4 59 50 bf 47 84 08 3f bf 9f 1e bf
       0.46446314 -0.81387067 0.5332684 -0.61962503
0000d0 b4 76 f1 39 bd 32 27 3a 80 03 b3 3e c2 4f c0 34
       0.00046055543 0.0006378105 0.34963608 3.5820818e-07
0000e0 0f 1a 7d 2d b5 41 6c 3e 7f 0c e6 3e 25 57 7b 39
       1.4387171e-11 0.2307194 0.4493141 0.00023969689
0000f0 11 91 e5 3e 34 68 73 3f 0d 85 15 b9 89 b1 a4 3e
       0.4483724 0.95080876 -0.00014259313 0.321667
000100 e0 e1 5f 3e 18 1d f2 3e f7 f6 90 3e 5d 1b 3b 38
       0.21863508 0.47287822 0.2831342 4.460976e-05
000110 06 28 4d 3f d0 66 f0 3e ec 9d 82 3b bd a1 a8 3e
       0.80139196 0.4695344 0.003986111 0.32935897
000120 c9 d7 fc 3e ad 5d c6 3e 51 f8 71 39 d3 50 d3 ba
       0.4938338 0.38743344 0.00023076056 -0.001612211
000130 fa 72 98 3e 8b b4 77 3b 4b 6a df 3e 6a 30 61 3f
       0.2977522 0.003779682 0.43635783 0.879645
000140 fe 69 d3 3b de 0b 87 3f 3d ab ac 3b db a6 81 3f
       0.0064518442 1.0550497 0.0052694366 1.0129045
000150 37 3b 45 ac 6c 96 1d 3c 3d 27 0d 3b 28 69 3f 3a
       -2.8028255e-12 0.009618383 0.002153828 0.0007301741
000160 9f ce 88 b6 6a 76 8c b8 54 b6 0d b7 d0 7d 85 3e
       -4.0771697e-06 -6.6977766e-05 -8.4467065e-06 0.2607255
000170 a6 27 c8 bb ad 87 cc 38 89 6c 5f 39 1d 7c 8c 2d
       -0.006108242 9.7527496e-05 0.0002130737 1.5971275e-11
000180 4d 95 ff 3e d2 7a de 3e a2 6f 4d 2f f6 dc 5c 3a
       0.49918595 0.4345308 1.8684301e-10 0.000842526
000190 d4 40 ff 3b c1 f7 92 38 1b a8 9a 3d 9a 48 00 3f
       0.0077897105 7.00797e-05 0.07551595 0.5011078
0001a0 dd fc 81 35 7c 3b ea 3e b0 91 39 bf 22 b5 83 3e
       9.684842e-07 0.45748508 -0.72487926 0.2572413
0001b0 5b 90 0b 3e 8f 76 4f 3a da 7b 85 ba ee 34 92 3a
       0.13629286 0.000791409 -0.0010184005 0.001115469
0001c0 00 4e 77 39 1b 3a a9 3e 0b 90 aa 3e ae 16 a1 ac
       0.00023584813 0.33052143 0.3331302 -4.578413e-12
0001d0 74 be b7 3e 32 36 d1 3e 5c 4d a3 36 cf e2 9e 3b
       0.35887492 0.4086166 4.8667844e-06 0.004848815
0001e0 52 ca b1 3e 0d 1b c1 3e 46 c2 18 3a d1 9c 87 2e
       0.3472467 0.3771595 0.0005827289 6.1669454e-11
0001f0 de a3 d9 3e ff 2e 53 38 03 8f 4c 3f f6 39 27 bf
       0.42507833 5.035009e-05 0.7990572 -0.65322816
000200 fb cc ef 35 f9 d9 ec 3e d1 c2 46 bf 48 4f 00 ac
       1.7866545e-06 0.4626005 -0.77641016 -1.8233904e-12
000210 e5 09 42 bf cc b2 24 3a e1 f3 1b 38 89 04 d1 3a
       -0.7579635 0.00062827463 3.718201e-05 0.0015946786
000220 97 10 09 3f 97 17 95 3e 0f 65 86 b5 32 22 44 bf
       0.5354094 0.2911956 -1.001319e-06 -0.7661468
000230 93 b2 d2 3e 6a d7 79 ba f7 14 b2 3e 5b fa 1d 3e
       0.41151866 -0.00095306954 0.3478162 0.15427534
000240 7d 4c 2e 3c 89 51 c5 38 45 87 33 3f 7f 4a 18 36
       0.010638353 9.408879e-05 0.7012828 2.2693127e-06
000250 df a0 59 38 85 b1 16 3f 57 ac e0 3e ae 74 7e 3f
       5.1886655e-05 0.58864623 0.43881485 0.9939679
000260 fe 34 2e 3b f0 c9 06 3b 21 20 15 38 f1 1d d0 3e
       0.0026581879 0.0020567141 3.555429e-05 0.40647843
000270 4a 7d ec b6 8e e0 48 bf 89 61 46 36 9a 32 59 3c
       -7.0479337e-06 -0.78467643 2.9561072e-06 0.013256693
000280 81 c8 12 3f 65 fb 7c 38 6b 9c 43 bf b9 ba ae 3e
       0.57337195 6.031561e-05 -0.7641055 0.34126833
000290 1c b0 8b 3e dd 28 47 3a cc d1 df 3e 15 b4 d6 b8
       0.27282798 0.00075973367 0.4371475 -0.00010237858
0002a0 f5 76 6d 3f 78 3e 34 bf dc 98 27 3f f9 fa 03 3f
       0.9275964 -0.7040782 0.6546762 0.5155483
0002b0 11 ed 3a 3b 4e c2 33 b1 8d b1 21 31 47 f7 81 3c
       0.002852265 -2.6158378e-09 2.352951e-09 0.015864981
0002c0 f9 1d 74 ba 15 e4 a2 32 6b 63 cf 3e 53 62 09 38
       -0.00093123276 1.8963002e-08 0.40505537 3.2754917e-05
0002d0 7d 1b a8 3e ef 41 66 3f 65 57 8d 3a 99 54 a8 3e
       0.32833472 0.89944357 0.0010783492 0.32877043
0002e0 9d d3 12 b9 b6 0c 19 b9 03 88 47 ad e5 bc a2 3e
       -0.00014002477 -0.00014595952 -1.1342041e-11 0.3178474
0002f0 de bc ae 3e 95 f1 09 3f ae 1d 0b 30 f9 40 f8 3e
       0.3412847 0.5388425 5.0610083e-10 0.4848707
000300 01 3b 05 2d e6 26 92 38 d8 1a ee 38 02 d6 ad 3e
       7.573276e-12 6.969068e-05 0.000113537244 0.33952338
000310 b7 cf 0b 3f 1c ad 0d 3f e5 1c 27 3b 60 92 ab 3a
       0.5461382 0.5534227 0.00254994 0.0013089888
000320 fb 52 9b 3c b5 9d 8e 32 54 29 09 3f 62 83 3c 3f
       0.018960467 1.6602693e-08 0.53578687 0.73637974
000330 75 6f 26 39 cd 59 4e 39 38 a9 cc 3e 3c 1b 13 bb
       0.00015872515 0.00019679144 0.39972854 -0.0022446653
000340 6e 95 3d bf f8 02 97 2c a3 e8 a7 37 60 25 3f 3f
       -0.74056137 4.2920077e-12 2.0016281e-05 0.74666405
000350 14 c7 4c bf ca d3 4e bf cc 95 a4 3a d5 12 26 b9
       -0.7999127 -0.80791914 0.001255685 -0.00015838009
000360 95 4f e9 3b e1 e8 8d 39 37 78 8f 3e 5e 6c 78 3f
       0.0071200826 0.00027067124 0.28021404 0.97040355
000370 7c 3a 76 3b 7a 2b a9 38 59 8b 43 bf 3d 59 2b 3f
       0.003757148 8.066646e-05 -0.763845 0.6693304
000380 ad d3 79 3f ee f5 3f ac 3d 61 31 ba 1a f5 65 ad
       0.97588617 -2.727925e-12 -0.0006766504 -1.3071566e-11
000390 ae 57 cb 3e a6 72 c2 3e db 55 4c 3f 9a 29 41 3f
       0.39715332 0.37978095 0.79818505 0.75454104
0003a0 de 9d a2 3e 7d 8c d7 35 4a c4 2e ba 8a 80 a1 b6
       0.31761068 1.6059636e-06 -0.00066668226 -4.813138e-06
0003b0 eb 2c 72 39 a5 4d 50 bf 90 44 4a bf e4 f6 34 b9
       0.00023095652 -0.81368476 -0.7901087 -0.00017258112
0003c0 6f 4e 2b 3b 3d 3a 97 ba 8e 23 c6 3e bc f2 31 35
       0.002613928 -0.0011537742 0.38699 6.6290863e-07
0003d0 55 bc 82 3f fa 0e 58 3b 24 32 a6 39 45 09 d4 3a
       1.0213724 0.003296791 0.00031699345 0.0016177079
0003e0 81 34 44 3c 5c 8a 66 3f 03 92 46 38 54 ff 3a 39
       0.0119754085 0.9005487 4.7342863e-05 0.0001783346
0003f0 68 94 c4 3e 7d 27 ba bb b7 b2 21 3f 22 53 7f 3e
       0.38394475 -0.005680977 0.6316332 0.24934056

ffn.0.bias f4 [4]
000000 29 fc c4 3d a1 57 51 3e 0d 04 14 bf 7a 5e 7c 3e
       0.09618408 0.20443584 -0.5781868 0.24645415
