explanation/checkpoints/ba_lrp/GCN_2l/0/GCN_2l_best.ckpt (torch_old, 135893 bytes, 8 tensors)

conv1.weight f4 [1, 128]
00000000: 04d7 83b3 c6bc 9232 9cdf 0333 377f a034
00000010: 006a aeb0 5ecc 9433 0c08 0034 5ee4 273e
00000020: fcd6 03b3 2473 303e 0127 c4b2 27fb 30b3
00000030: e030 223e 6906 a2b2 48e9 cf34 4b51 333e
00000040: b1eb 3d3e f5fc 0934 cc2a 293e 8e33 0b34
00000050: ca2a 44b2 876a 343e b268 5eb4 ff6e c133
00000060: b532 253e 0681 5f32 0752 8bb3 f669 9631
00000070: 8bbc 333e ad67 9833 1727 3133 78c0 ca34
00000080: eb64 363e b1ec 86b2 5695 bf34 ec88 f433
00000090: aff0 20b4 8570 363e 6fe5 2f3e 9341 353e
000000a0: c02e 3832 47eb 0432 9cb4 9932 11f9 3db4
000000b0: 22bf 7a33 fe61 dbb1 e464 1933 8453 c1b3
000000c0: a717 ee36 730f 4bb3 8627 303e 3df9 07b3
000000d0: cc95 11b3 fe29 2c33 adb5 2f3e 52f4 333e
000000e0: 352f 9e32 5a8e bcb1 0763 53b4 aaea 4534
000000f0: 9261 0932 7dfb 283e 1386 b3b2 c7a2 fa32
00000100: d460 0f34 d5b8 33b4 a134 c732 8b76 99b4
00000110: 7929 b431 4e1b a4b4 aef0 9334 fc08 2e3e
00000120: 75eb 343e ac21 bbb2 3e41 83b1 73cd 5c33
00000130: 2d3a 7ab9 e96a 2c34 83a6 a0b4 35b6 ce34
00000140: 2d89 10b4 bd19 05bb 62ac 62b0 b60e 6633
00000150: c092 3e34 e1ad 2e3e 3911 2f3e d030 25b3
00000160: 3d0e cb33 3d60 30b4 e319 9f34 2615 8932
00000170: b230 49b3 cbc0 98b4 09a5 b933 c0df 0e34
00000180: 7473 363e 73e5 1bb2 b80d 343e af9d 0d34
00000190: 75b6 72b2 3187 8db4 66ac c332 341b caba
000001a0: bf1d 1f3e e5ee 3634 7688 98b3 ea74 3133
000001b0: a8b0 7ab2 5a9d f8b2 5691 353e 79ab b4b4
000001c0: cd92 3c3e 21a1 45ba 7ef8 4db7 2b7e 3b3e
000001d0: 7141 3db4 a64a 3f3e cb32 243e dea0 cb34
000001e0: 6d0f 3b3e 8217 343e f0c7 073a 9403 e133
000001f0: 5ee6 60b3 3091 273e bcca 18b4 4ae0 8634
-6.139274e-08 1.7082481e-08 3.0704186e-08 2.9894883e-07 -1.2690293e-09 6.928961e-08 1.1923856e-07 0.16395709
-3.069634e-08 0.17231423 -2.283514e-08 -4.1206615e-08 0.15838957 -1.8862197e-08 3.872649e-07 0.1751148
0.1854694 1.2851145e-07 0.16520232 1.2964139e-07 -1.1418431e-08 0.17618762 -2.0713449e-07 9.007453e-08
0.16132624 1.3009645e-08 -6.4876126e-08 4.377621e-09 0.17552392 7.09691e-08 4.1246576e-08 3.7765471e-07
0.17811935 -1.5707288e-08 3.5685179e-07 1.1387041e-07 -1.4988721e-07 0.1781636 0.17177366 0.17700796
1.0720839e-08 7.736907e-09 1.7893676e-08 -1.7692606e-07 5.8381495e-08 -6.3848793e-09 3.5714848e-08 -9.002454e-08
7.095706e-06 -4.727867e-08 0.17202577 -3.1658818e-08 -3.3896683e-08 4.0085062e-08 0.17159148 0.1757367
1.8415088e-08 -5.4877036e-09 -1.9686932e-07 1.8432425e-07 7.9966345e-09 0.16502185 -2.0899313e-08 2.9177853e-08
1.3353139e-07 -1.6737916e-07 2.3190582e-08 -2.8584722e-07 5.2434044e-09 -3.0567247e-07 2.7556e-07 0.16995615
0.17667945 -2.1784977e-08 -3.820019e-09 5.1409597e-08 -0.0002386353 1.6057642e-07 -2.9923476e-07 3.8503063e-07
-1.346095e-07 -0.002030953 -8.246329e-10 5.3564428e-08 1.7748516e-07 0.17058517 0.17096414 -3.846145e-08
9.455514e-08 -1.6426289e-07 2.9634893e-07 1.5958516e-08 -4.6843248e-08 -2.8452482e-07 8.6447535e-08 1.330618e-07
0.1781748 -9.074358e-09 0.17583358 1.3189013e-07 -1.412774e-08 -2.636166e-07 2.2779385e-08 -0.0015419484
0.15538691 1.703698e-07 -7.102874e-08 4.1317357e-08 -1.4592082e-08 -2.8942555e-08 0.17731223 -3.3652375e-07
0.18415375 -0.00075389637 -1.2276809e-05 0.18309848 -1.7625804e-07 0.1868082 0.16035001 3.7928743e-07
0.18267603 0.17587093 0.00051796343 1.047803e-07 -5.2363582e-08 0.16363978 -1.4229857e-07 2.5122637e-07

conv1.bias f4 [128]
00000000: 0000 0000 0000 0000 0000 0000 0000 0000
00000010: 0000 0000 0000 0000 67c3 8333 33b7 98bd
00000020: 0000 0000 a017 05be 0000 0000 0000 0000
00000030: df59 89bd 0000 0000 0000 0000 feef b5bd
00000040: d088 18be 0000 0000 1a82 92bd 0000 0000
00000050: 0000 0000 90e2 aebd 0000 0000 e3ad b8b2
00000060: b201 bcbd e1bf 9f33 0000 0000 0000 0000
00000070: e1b6 07be a710 88b2 0000 0000 0000 0000
00000080: 5e27 02be 0000 0000 0000 0000 0000 0000
00000090: 0000 0000 3262 dfbd 5339 0bbe b753 17be
000000a0: 0000 0000 0000 0000 0000 0000 0000 0000
000000b0: 0000 0000 0000 0000 0000 0000 0000 0000
000000c0: c911 1c34 0000 0000 f656 cabd 0000 0000
000000d0: 0000 0000 0000 0000 81b4 0ebe e847 0fbe
000000e0: 0000 0000 0000 0000 0000 0000 0000 0000
000000f0: 0000 0000 0f63 d4bd 0000 0000 0000 0000
00000100: 0000 0000 0000 0000 0000 0000 0000 0000
00000110: 0000 0000 0000 0000 0000 0000 e3d0 e9bd
00000120: ff27 0ebe 0000 0000 0000 0000 7ceb 8332
00000130: 957f 3bb3 0000 0000 0000 0000 0000 0000
00000140: 0000 0000 1323 2e34 0000 0000 0000 0000
00000150: 0000 0000 c578 adbd b0cc c1bd 0000 0000
00000160: 0000 0000 0000 0000 0000 0000 0000 0000
00000170: 0000 0000 0000 0000 0000 0000 0000 0000
00000180: 9c61 0fbe 0000 0000 7089 03be 0000 0000
00000190: 0000 0000 0000 0000 0000 0000 5aba c934
000001a0: 5ac0 83bd 0000 0000 0000 0000 0000 0000
000001b0: 0000 0000 0000 0000 364e f1bd 0000 0000
000001c0: 5671 f2bd 2882 81b4 5d4d a4b4 e034 00be
000001d0: 0000 0000 1f54 f9bd b762 7cbd 0000 0000
000001e0: 77cc f9bd 347b e7bd 3681 5134 b832 d5b1
000001f0: 0000 0000 a892 a1bd 0000 0000 0000 0000
0.0 0.0 0.0 0.0 0.0 0.0 6.135706e-08 -0.074568175
0.0 -0.12997293 0.0 0.0 -0.06706595 0.0 0.0 -0.088836655
-0.1489594 0.0 -0.07153721 0.0 0.0 -0.08539307 0.0 -2.1499494e-08
-0.09180011 7.438917e-08 0.0 0.0 -0.13253357 -1.5840056e-08 0.0 0.0
-0.1271033 0.0 0.0 0.0 0.0 -0.10907401 -0.13596086 -0.14778028
0.0 0.0 0.0 0.0 0.0 0.0 0.0 0.0
1.4535102e-07 0.0 -0.09879868 0.0 0.0 0.0 -0.13936044 -0.13992274
0.0 0.0 0.0 0.0 0.0 -0.103704564 0.0 0.0
0.0 0.0 0.0 0.0 0.0 0.0 0.0 -0.11416795
-0.13882445 0.0 0.0 1.5357493e-08 -4.3655366e-08 0.0 0.0 0.0
0.0 1.6217773e-07 0.0 0.0 0.0 -0.084703006 -0.09462869 0.0
0.0 0.0 0.0 0.0 0.0 0.0 0.0 0.0
-0.14002079 0.0 -0.12845397 0.0 0.0 0.0 0.0 3.7574756e-07
-0.064331725 0.0 0.0 0.0 0.0 0.0 -0.11782496 0.0
-0.11838023 -2.4122824e-07 -3.060367e-07 -0.1252017 0.0 -0.12174248 -0.06161758 0.0
-0.12197202 -0.11302796 1.9511648e-07 -6.204882e-09 0.0 -0.078893006 0.0 0.0

convs.0.weight f4 [128, 128]
00000000: 056e adb3 c8f3 7532 d0ae 4b31 26ea f5b2
00000010: 7b2f c3b3 9787 57b4 507a 3fb4 a5ac 50b2
00000020: f7c3 c632 95a0 aa32 4e67 7f32 7444 1b32
00000030: 5cdf 8832 fc6b c932 60f8 3eb4 0e59 2532
00000040: 81eb 82b1 8b52 f131 1139 ddb2 30b5 e3b2
00000050: 2ec1 b6b3 9e16 8f34 cc66 5434 998d 80b3
00000060: 42dd ceb3 9cd3 8bb0 4890 8ab4 d66d 8eb4
00000070: a322 fbb3 060e 8c33 5515 d8b1 5dee 5fb4
00000080: 19af 3032 fba3 2f34 a8fd 9b33 f23c e633
00000090: a377 5b33 c2cc 14b4 4a09 35b4 e495 7532
000000a0: 5249 b1b3 1269 9632 ea21 34b2 38f4 cb30
000000b0: bbe2 8533 c6e1 2034 de2c 7db1 41ad 1bb4
000000c0: 630c 94b3 f6bd 1634 78a8 e733 56f6 0db2
000000d0: 5c51 5b32 14d8 bf33 3596 c432 52a6 3f34
000000e0: 0c92 5b34 b680 37b2 f7e7 24b0 5933 08b4
000000f0: 859d 0634 ed61 2bb4 3223 4b34 5da1 0cb4
00000100: deb5 5e33 8864 d233 8a41 c033 05de 5534
00000110: c21b e5b3 9301 3c34 64b0 62b4 6080 b1b3
00000120: 31af 6fb4 7560 4933 ea8f 0db4 bf75 1e32
00000130: b0ea fd32 6f7c 2d34 0f86 93b2 4527 e033
00000140: 5afa 0631 bcb7 a230 9198 e533 0049 c8b1
00000150: 7927 e833 0ef2 1234 68d8 7d33 7c65 ce31
00000160: d1fb 01b3 c3c4 3433 58af 2f33 0d8c 73b4
00000170: 0c8f 1a34 9c75 cfb3 c99c b7b3 4e7b 82b4
00000180: 8f7e c533 0abf 92b3 6bb4 dfb2 aed3 49b4
00000190: a36c f032 670f 55b3 75b2 0434 caac 04b4
000001a0: 72b9 5b32 23d8 c7b2 3e24 03b4 b0db b332
000001b0: 1f9b 93b2 8b11 d332 7cd2 0334 d245 6cb3
000001c0: d235 38b4 a514 9533 0e70 d532 1b5e 7733
000001d0: f5cf b333 519b 2834 8e9c 3f34 bc19 61b4
000001e0: 5c01 21b4 bac6 5934 e7ed bbb3 c90c aa31
000001f0: 339b e2b1 13a7 0b32 65e5 92b3 efdd 6633
00000200: c9b9 eeb3 9ddf 9a33 86cc 2a33 7058 2233
00000210: 19c8 3334 6052 9832 1758 86b3 cdf8 8034
00000220: c7bd 3f33 722b a732 dcf2 71b4 f06e f731
00000230: 2d2c dab2 ffb3 6730 e664 7932 54e9 de33
00000240: d57a 29b1 6354 2ab3 d948 68b4 74ff 48b3
00000250: 9672 2334 e178 0933 8956 6cb4 83d9 5032
00000260: 7a36 ebb3 4f8a 9233 ee69 0db4 f058 e133
00000270: 4270 34b3 8628 6734 b871 6634 2a12 2fb2
00000280: c9f1 75b3 1b1a 97b3 b3a0 24b4 1ec9 85b2
00000290: 1b70 6034 4d5e 0eb4 ee2d 04b4 683f 1db4
000002a0: 60ea 9233 4d33 5c32 0538 21b3 83f9 e032
000002b0: a073 e832 ebd8 44b3 35fd ba33 0a7c 80b4
000002c0: 90c4 ccb3 c348 6634 c023 71b2 1497 c4b2
000002d0: 5ae3 a3b3 bae4 1cb4 4341 04b3 7ef3 12b4
000002e0: 446b 6bb3 6c66 10b4 fdc1 ceb2 9eb3 dc32
000002f0: b702 deb3 63e1 12b3 77fc 7532 bd81 21b4
00000300: 0ce1 0db3 9cca 9d33 0563 8733 c726 2033
00000310: e1cd 3b30 83d7 eab1 8caa 8432 21ae 3eb4
00000320: a4c4 5ab3 a4a4 f1b3 b19a 98b2 607b 2a34
00000330: a653 87b3 c828 a6b3 33f6 24b3 f3c4 63b3
00000340: f41c b333 daa2 3cb2 3a99 f4b2 b485 a833
00000350: a0ac 5db3 f0f8 8bb3 3373 3c31 2a55 0e33
00000360: e2ad 0ab2 848b a6b3 02d8 2934 2a40 bfb3
00000370: ccc0 36b4 14ed 0233 8028 07b4 142f 06b3
00000380: af7a dab3 8a42 abb3 2d99 be33 9980 71b2
00000390: e58f bdb3 c179 d9b3 caf4 52b2 654b 14b4
000003a0: da65 63b4 64be be31 de01 e0b1 6017 4333
000003b0: 3522 1c34 02b3 f533 bdce bf33 22e2 2034
000003c0: 2b3d 6d33 b2a4 db33 fdd0 8331 9453 c133
000003d0: 6f64 48b2 a81c 3bb4 9d48 4234 06cb 47b3
000003e0: d179 3fb4 713a 21b4 b1eb d9b3 d4a4 6bb2
000003f0: 00c8 5532 09e0 05b3 c93d 6133 cf16 89b3
-8.075953e-08 1.4316306e-08 2.9639757e-09 -2.8628232e-08 -9.089032e-08 -2.0072763e-07 -1.7832758e-07 -1.2146448e-08
2.3139348e-08 1.9863629e-08 1.4866442e-08 9.037752e-09 1.5934056e-08 2.3448585e-08 -1.7785487e-07 9.624513e-09
-3.8102717e-09 7.023407e-09 -2.5753737e-08 -2.6508673e-08 -8.5101746e-08 2.6652282e-07 1.9781436e-07 -5.986221e-08
-9.632869e-08 -1.0173724e-09 -2.5809481e-07 -2.6529477e-07 -1.1694399e-07 6.521809e-08 -6.2888525e-09 -2.085521e-07
1.0284361e-08 1.6357801e-07 7.26389e-08 1.07212955e-07 5.109872e-08 -1.3858065e-07 -1.6860318e-07 1.4294958e-08
-8.255542e-08 1.7510079e-08 -1.048509e-08 1.4839605e-09 6.234537e-08 1.4983297e-07 -3.684185e-09 -1.449853e-07
-6.89404e-08 1.4038946e-07 1.078742e-07 -8.2632905e-09 1.2765977e-08 8.933435e-08 2.288571e-08 1.7848768e-07
2.0449096e-07 -1.0681267e-08 -5.9992494e-10 -1.2684667e-07 1.2537028e-07 -1.5961241e-07 1.8918652e-07 -1.309722e-07
5.185381e-08 9.7971736e-08 8.952618e-08 1.9917941e-07 -1.06686926e-07 1.7509437e-07 -2.1112061e-07 -8.265556e-08
-2.2322344e-07 4.6886687e-08 -1.3184004e-07 9.223583e-09 2.95598e-08 1.6157149e-07 -1.7174015e-08 1.0437956e-07
1.9641875e-09 1.1839272e-09 1.0691395e-07 -5.8290652e-09 1.0810522e-07 1.3685369e-07 5.9102973e-08 6.0069265e-09
-3.026418e-08 4.208847e-08 4.0904837e-08 -2.2682089e-07 1.4394408e-07 -9.660582e-08 -8.5501206e-08 -2.4304103e-07
9.196548e-08 -6.8334046e-08 -2.6042661e-08 -1.8796592e-07 2.798908e-08 -4.9606935e-08 1.235838e-07 -1.2356318e-07
1.2789643e-08 -2.3264937e-08 -1.221351e-07 2.0938245e-08 -1.7183593e-08 2.457161e-08 1.22769e-07 -5.5011533e-08
-1.7155915e-07 6.9421084e-08 2.484742e-08 5.7594757e-08 8.373164e-08 1.5702723e-07 1.7845215e-07 -2.096412e-07
-1.4994788e-07 2.0281996e-07 -8.75114e-08 4.9491047e-09 -6.59511e-09 8.128853e-09 -6.8403814e-08 5.3752895e-08
-1.1116533e-07 7.211859e-08 3.9767222e-08 3.7798998e-08 1.6743469e-07 1.7732589e-08 -6.255885e-08 2.4022884e-07
4.4643254e-08 1.9461115e-08 -2.2533226e-07 7.2012583e-09 -2.5398629e-08 8.42931e-10 1.4516649e-08 1.0380123e-07
-2.4662559e-09 -3.965796e-08 -2.1633186e-07 -4.6798462e-08 1.5222244e-07 3.2007737e-08 -2.2010694e-07 1.215665e-08
-1.09529495e-07 6.823813e-08 -1.3170185e-07 1.04935566e-07 -4.2011614e-08 2.1528294e-07 2.146179e-07 -1.0190471e-08
-5.726341e-08 -7.036234e-08 -1.5332152e-07 -1.5574695e-08 2.090241e-07 -1.3259087e-07 -1.2310167e-07 -1.4644831e-07
6.8412874e-08 1.281735e-08 -3.7536683e-08 2.6190497e-08 2.7060935e-08 -4.5832092e-08 8.707358e-08 -2.3932108e-07
-9.535245e-08 2.144689e-07 -1.4036175e-08 -2.2886105e-08 -7.631634e-08 -1.4611842e-07 -3.0793e-08 -1.3685892e-07
-5.481276e-08 -1.3448306e-07 -2.4069772e-08 2.5693051e-08 -1.03381744e-07 -3.4198262e-08 1.4318281e-08 -1.5041492e-07
-3.30338e-08 7.3477366e-08 6.304439e-08 3.728817e-08 6.8322775e-10 -6.834797e-09 1.5444378e-08 -1.7758477e-07
-5.0935924e-08 -1.1252385e-07 -1.7765474e-08 1.5877367e-07 -6.301643e-08 -7.7373954e-08 -3.8408142e-08 -5.303168e-08
8.3406036e-08 -1.0980068e-08 -2.8475018e-08 7.84743e-08 -5.1612574e-08 -6.5179734e-08 2.7423084e-09 3.3139408e-08
-8.072194e-09 -7.755355e-08 1.5817935e-07 -8.905802e-08 -1.702021e-07 3.0483605e-08 -1.2587589e-07 -3.1242124e-08
-1.0173732e-07 -7.9749114e-08 8.875427e-08 -1.4057286e-08 -8.8271726e-08 -1.0126997e-07 -1.2279267e-08 -1.3811002e-07
-2.1178076e-07 5.5513727e-09 -6.5194703e-09 4.5423235e-08 1.4541077e-07 1.1441263e-07 8.931736e-08 1.4983428e-07
5.5236494e-08 1.022794e-07 3.836361e-09 9.0024656e-08 -1.1664368e-08 -1.7426157e-07 1.8094075e-07 -4.6517947e-08
-1.7832578e-07 -1.5015554e-07 -1.0147722e-07 -1.3716278e-08 1.24437065e-08 -3.1170234e-08 5.2443088e-08 -6.3837085e-08

convs.0.bias f4 [128]
00000000: 0000 0000 0000 0000 0000 0000 0000 0000
00000010: 0000 0000 0000 0000 d29a 49b0 0000 0000
00000020: 0000 0000 0000 0000 0000 0000 0000 0000
00000030: 0000 0000 0000 0000 0000 0000 0000 0000
00000040: 0000 0000 0000 0000 0000 0000 0000 0000
00000050: 0000 0000 0000 0000 0000 0000 0000 0000
00000060: 0000 0000 0000 0000 0000 0000 0000 0000
00000070: 0000 0000 0000 0000 7aa6 46b2 0000 0000
00000080: 0000 0000 0000 0000 0000 0000 0000 0000
00000090: 0000 0000 0000 0000 0000 0000 0000 0000
000000a0: 0000 0000 5f39 0c3f 0000 0000 3b6e 7733
000000b0: 0000 0000 0000 0000 0000 0000 0000 0000
000000c0: 0000 0000 0000 0000 0000 0000 0000 0000
000000d0: 0000 0000 0000 0000 0000 0000 0000 0000
000000e0: 0000 0000 73a9 1a34 0000 0000 0000 0000
000000f0: 0000 0000 0000 0000 0000 0000 0000 0000
00000100: 0000 0000 0000 0000 0000 0000 0000 0000
00000110: 0000 0000 0000 0000 644b 953e 0000 0000
00000120: 0000 0000 f552 e53e 0000 0000 0000 0000
00000130: 0000 0000 0000 0000 0000 0000 0000 0000
00000140: fad0 f63e 0000 0000 0000 0000 0000 0000
00000150: 0000 0000 0000 0000 0000 0000 0000 0000
00000160: 0000 0000 0000 0000 0000 0000 0000 0000
00000170: 0000 0000 0000 0000 0000 0000 0000 0000
00000180: 0000 0000 0000 0000 0000 0000 0000 0000
00000190: ca43 8232 0000 0000 0000 0000 0000 0000
000001a0: 0000 0000 0000 0000 d20c 0b3f 0000 0000
000001b0: 0000 0000 0000 0000 0000 0000 0000 0000
000001c0: 0000 0000 0000 0000 0000 0000 0000 0000
000001d0: 0000 0000 0000 0000 0000 0000 0000 0000
000001e0: 0000 0000 0000 0000 0000 0000 0000 0000
000001f0: 0000 0000 a2e7 13b3 0000 0000 0000 0000
0.0 0.0 0.0 0.0 0.0 0.0 -7.3343387e-10 0.0
0.0 0.0 0.0 0.0 0.0 0.0 0.0 0.0
0.0 0.0 0.0 0.0 0.0 0.0 0.0 0.0
0.0 0.0 0.0 0.0 0.0 0.0 -1.1562969e-08 0.0
0.0 0.0 0.0 0.0 0.0 0.0 0.0 0.0
0.0 0.5477504 0.0 5.7609423e-08 0.0 0.0 0.0 0.0
0.0 0.0 0.0 0.0 0.0 0.0 0.0 0.0
0.0 1.4404013e-07 0.0 0.0 0.0 0.0 0.0 0.0
0.0 0.0 0.0 0.0 0.0 0.0 0.2915908 0.0
0.0 0.44789854 0.0 0.0 0.0 0.0 0.0 0.0
0.4820631 0.0 0.0 0.0 0.0 0.0 0.0 0.0
0.0 0.0 0.0 0.0 0.0 0.0 0.0 0.0
0.0 0.0 0.0 0.0 1.5164819e-08 0.0 0.0 0.0
0.0 0.0 0.5431644 0.0 0.0 0.0 0.0 0.0
0.0 0.0 0.0 0.0 0.0 0.0 0.0 0.0
0.0 0.0 0.0 0.0 0.0 -3.4436773e-08 0.0 0.0

ffn.0.weight f4 [128, 128]
00000000: 27c0 b133 9685 9733 9b9e b2b2 eff0 b533
00000010: 6528 5c33 f51d d8b3 dd89 7db3 89ed d932
00000020: f870 2633 bdcf 3633 8097 9bb2 3e63 94b3
00000030: 0e62 75b0 1d36 d031 9035 9432 c250 d633
00000040: 12b6 16b3 131a 37b1 0fc4 10b3 d04b 2e31
00000050: 4004 cbb3 acca 9631 c3dd 15b2 71fd 1334
00000060: 102e aa33 cebe a6b3 9d78 0433 3db4 9bb2
00000070: 8fac 15b3 1a55 6032 e08e 8db3 c7db 89b2
00000080: 0ac8 dbb3 3dda 7ab3 f18b 9433 e5e1 19b3
00000090: 21ca 9932 e08f 9632 14a4 ad33 668e e5b1
000000a0: 573d adb2 6913 353e e576 9533 9372 0132
000000b0: 3cca da33 55c8 15b4 5697 dcb3 5381 beb3
000000c0: ba8f 6033 369d 15b4 5798 9433 c4bb b233
000000d0: 3577 b432 1a7b b2b3 eb0c 08b4 e39b 35b3
000000e0: b11c d332 6cb6 74b3 19ae 4833 1231 ef32
000000f0: 9969 b432 5030 84b3 e30c 9bb2 ef7f 7c33
00000100: 9ae3 fcb2 92bb ee33 02b6 4831 87ea 3533
00000110: 572c a6b3 e7b3 3f32 2707 883c 6288 b532
00000120: 6cfe 0733 1071 523e 3554 6e33 0301 01b3
00000130: b40c 14b3 f4f5 5e33 6ca6 a033 2622 0c34
00000140: 0736 273e 6a38 beb3 2046 e3b3 2c88 1b32
00000150: dc06 8933 b1bb 3eb3 2049 2133 f516 7732
00000160: 9785 b8b3 d4b1 6532 14b5 2633 044d fd33
00000170: eb75 2832 7b87 5fb3 8502 3732 cab6 6cb3
00000180: 7d0c 1bb3 f3e4 1232 f47b 4233 abf9 4c32
00000190: ebae c633 0fd5 0fb4 7815 30b3 71bb a7b3
000001a0: 8e5f db33 b7b7 afb2 f67e 233e cdc3 7b33
000001b0: a3a4 4cb3 3377 0732 ccbb e133 70c1 a2b2
000001c0: 7e3a 80b2 809e e6b2 a22b 1532 e57c 8632
000001d0: ac26 8bb2 353a 9733 bb89 e3b3 cf9c 2db2
000001e0: 16a8 4a33 fb08 f8b2 7b25 46b3 3956 9733
000001f0: 99a2 8533 0ccc 15b4 d862 b433 2678 e3b3
00000200: 6227 92b2 017a a1b1 6eef 9133 5875 c832
00000210: 3ec1 f230 427b 4830 a079 1234 8cf7 a533
00000220: 70bb 62b3 0e94 37b3 b8ec 61b3 dfe3 782f
00000230: fdb8 a230 d4ff 3d32 6886 9932 f19a 4a33
00000240: 8843 35b2 d679 8d33 4a86 8db3 070f 45b2
00000250: 3f2e f5b2 16ef 18b3 c4f7 a9b2 2014 e433
00000260: 77cf e232 2153 cb33 2312 01b4 a9df 2633
00000270: 0ac5 8ab3 6dab 08b4 7c82 8732 649a b7b2
00000280: 54f9 7f33 ed87 acb1 190e a8b3 3f94 ef33
00000290: 7509 eab2 a74f 8233 11b6 a733 a632 a132
000002a0: b172 3832 033c e43d 1616 a3b2 8037 feb3
000002b0: de58 ec31 4bdb 8632 9e5b cbb3 7d72 5633
000002c0: 861e 11b1 f106 30b3 2ffc 3b33 0bbc 7ab3
000002d0: 80c0 48b3 f657 76b2 a895 4033 b5b2 4133
000002e0: 88f2 a532 1512 2934 282d 1db4 a877 1334
000002f0: 32a1 4932 6524 4b33 128b 2532 bbd5 1cb1
00000300: b823 9e32 84eb 1a32 bb82 8e33 c15a ac33
00000310: bc2a e8b2 d21e 88b0 1eba 68bc c5d2 a2b3
00000320: 67ed acb3 c7a8 fa3d cd43 b933 443e 2034
00000330: 3b5e 6433 ea56 d7b3 c3ef c333 1ce8 8a33
00000340: 852b dd3d ad33 30b1 8d1e c033 4ad9 0bb2
00000350: fa9e b3b3 7a18 e2b1 f6e3 6f32 e1ff 1c32
00000360: 436a e731 e481 ffb2 560d dfb1 9943 98b3
00000370: 638c f4b3 57fc 2033 4912 9331 01b4 c4b3
00000380: 406e 2633 b61b f0b2 76ee 10b4 fb72 0233
00000390: 9392 e032 9e19 82b1 429e cbb2 2d93 c733
000003a0: f069 0734 b3ca 43b3 c39b ca3d bd20 87b2
000003b0: f441 f932 d076 7ab3 b98d b833 02d3 06b2
000003c0: 5951 d333 8a62 7eb2 79e1 82b3 3fc3 6532
000003d0: 425d f0b2 8665 1d32 f969 29b3 8663 85b2
000003e0: d7fe 81b2 4996 8833 6c0e 4130 8c31 c1b3
000003f0: 3e5e 0bb4 d48e c4b2 39b8 62b1 2ddf bf31
8.277157e-08 7.0557846e-08 -2.0794053e-08 8.472295e-08 5.125948e-08 -1.0063733e-07 -5.903154e-08 2.5370143e-08
3.875263e-08 4.2564114e-08 -1.8113269e-08 -6.909839e-08 -8.9269825e-10 6.0597487e-09 1.7253825e-08 9.979841e-08
-3.509019e-08 -2.6644826e-09 -3.3705927e-08 2.5363427e-09 -9.453697e-08 4.3886157e-09 -8.723364e-09 1.3782643e-07
7.9246206e-08 -7.7646845e-08 3.0843342e-08 -1.8126338e-08 -3.4848707e-08 1.3057866e-08 -6.591813e-08 -1.6048842e-08
-1.0234369e-07 -5.8406147e-08 6.917242e-08 -3.582854e-08 1.7903462e-08 1.7527725e-08 8.085786e-08 -6.680966e-09
-2.0167745e-08 0.17683186 6.95998e-08 7.534839e-09 1.0188202e-07 -1.3949587e-07 -1.0272076e-07 -8.8710884e-08
5.2284783e-08 -1.39339e-07 6.9194975e-08 8.322925e-08 2.1008967e-08 -8.311163e-08 -1.2670687e-07 -4.2284125e-08
2.457668e-08 -5.697659e-08 4.672447e-08 2.7845577e-08 2.1002778e-08 -6.155517e-08 -1.8050235e-08 5.8789677e-08
-2.9440162e-08 1.11168575e-07 2.920729e-09 4.2355648e-08 -7.738043e-08 1.1158568e-08 0.016604973 2.1133193e-08
3.1663532e-08 0.20550942 5.549028e-08 -3.0036073e-08 -3.447049e-08 5.1912096e-08 7.4808526e-08 1.3050939e-07
0.16329204 -8.857826e-08 -1.0583267e-07 9.053149e-09 6.380807e-08 -4.4408527e-08 3.755224e-08 1.4382512e-08
-8.5924675e-08 1.3369988e-08 3.8814576e-08 1.17952396e-07 9.8056985e-09 -5.2044452e-08 1.0652575e-08 -5.5114278e-08
-3.6100108e-08 8.5503755e-09 4.528188e-08 1.1931131e-08 9.251911e-08 -1.3395423e-07 -4.099772e-08 -7.810639e-08
1.02153635e-07 -2.0456225e-08 0.159664 5.861857e-08 -4.7647188e-08 7.885137e-09 1.0511539e-07 -1.8947247e-08
-1.492776e-08 -2.6847601e-08 8.682862e-09 1.5656449e-08 -1.6199316e-08 7.042073e-08 -1.0595564e-07 -1.01055795e-08
4.7184663e-08 -2.8875084e-08 -4.6134556e-08 7.047169e-08 6.2228715e-08 -1.3950938e-07 8.399883e-08 -1.0592366e-07
-1.7014546e-08 -4.699587e-09 6.795641e-08 2.3336426e-08 1.766274e-09 7.2934736e-10 1.3641557e-07 7.72844e-08
-5.27902e-08 -4.2742663e-08 -5.260219e-08 2.2636425e-10 1.1839628e-09 1.10594165e-08 1.7872665e-08 4.717271e-08
-1.05509415e-08 6.587986e-08 -6.590251e-08 -1.1470326e-08 -2.8542784e-08 -3.5607705e-08 -1.978686e-08 1.0620738e-07
2.6404207e-08 9.468045e-08 -1.202066e-07 3.8853305e-08 -6.461967e-08 -1.2728351e-07 1.5775406e-08 -2.1374213e-08
5.9598577e-08 -5.021312e-09 -7.825674e-08 1.11562706e-07 -2.7245486e-08 6.0680854e-08 7.809661e-08 1.8765899e-08
1.0736287e-08 0.11144259 -1.8985741e-08 -1.1837892e-07 6.878607e-09 1.5699376e-08 -9.469589e-08 4.9929884e-08
-2.1117628e-09 -4.0984506e-08 4.376869e-08 -5.8378685e-08 -4.6741206e-08 -1.4339085e-08 4.4839595e-08 4.5098847e-08
1.9318819e-08 1.574593e-07 -1.4638192e-07 1.3733973e-07 1.1736391e-08 4.729772e-08 9.635885e-09 -2.282248e-09
1.8409864e-08 9.01753e-09 6.63617e-08 8.025882e-08 -2.7027788e-08 -9.904062e-10 -0.01420453 -7.5820516e-08
-8.0525574e-08 0.12239223 8.627067e-08 1.4923813e-07 5.317109e-08 -1.0027527e-07 9.1240075e-08 6.468346e-08
0.10799316 -2.5640745e-09 8.946254e-08 -8.140271e-09 -8.364255e-08 -6.5802483e-09 1.3963463e-08 9.138575e-09
6.7350654e-09 -2.9744974e-08 -6.4916703e-09 -7.0903475e-08 -1.13876716e-07 3.7482405e-08 4.280342e-09 -9.159704e-08
3.875016e-08 -2.7952279e-08 -1.3497797e-07 3.0372558e-08 2.6143686e-08 -3.7864103e-09 -2.3704278e-08 9.293431e-08
1.2611395e-07 -4.558633e-08 0.098929904 -1.5730956e-08 2.9017407e-08 -5.831572e-08 8.593947e-08 -7.847804e-09
9.84025e-08 -1.4807151e-08 -6.09461e-08 1.3373948e-08 -2.7982086e-08 9.1616865e-09 -3.944476e-08 -1.5528496e-08
-1.5133464e-08 6.36033e-08 7.0233486e-10 -8.9962754e-08 -1.2979669e-07 -2.2882354e-08 -3.2992047e-09 5.5842038e-09

ffn.0.bias f4 [128]
00000000: 2ad5 55be d964 28bd 66b1 bbbc a956 283e
00000010: b630 c7bb 38c4 4fbe 9aef 313e 991f f13d
00000020: 84fd 8abd 13ae 113e 3f96 2dbe 2558 67ba
00000030: a822 d3ba b674 31ba 8df4 8fbd ab5e ffbc
00000040: 90ea ddbc 1129 57be 4317 2c3e 63c2 82bd
00000050: 6d27 3d3e 2a1e 1fbd 1e50 3b3e 9624 a2bc
00000060: 6753 1fbc 1c38 c5bc f237 94bb 4f25 13bd
00000070: 2f6f 1c3e 2505 78bc 32b7 473e 75f9 90bd
00000080: df80 40bb 5520 1e3e 8d14 143e 5efd 323e
00000090: fe30 3e3e 1cb9 9fbc d3e8 7ab8 e2f3 84bd
000000a0: 0906 2e3e 05ab a0bb 6906 cdbc 7c05 54bb
000000b0: e058 11be 7bb0 2dbe a5be 35be b28f 86bd
000000c0: 1694 e3bd 818e b4bd 75de 4bbe a520 9bbd
000000d0: f989 f5bc 9811 2bbd 4ab7 f2bb 291e 013e
000000e0: 0818 03bd 6b71 b6bb 1559 f63d 545f 2e3e
000000f0: f236 a8bd 7561 1abe 2963 3c3e 9f6d 5cb8
00000100: 5755 1b3e 5c4e 97bd b2ba 263e 160b 00be
00000110: a99a 2b3e 98f5 85bd 02e1 5abd b5a3 1dbd
00000120: 9fc7 54be 5ec0 8bbc 3e01 58bd 4949 4a3e
00000130: b336 6dbd 873c dabb c061 95bc 0ab9 83bc
00000140: d907 2a3e 1bb5 393e bc7f 283e a0c2 d23d
00000150: 605e 4dbe e070 06b9 b1cf 0c3e 6c67 093e
00000160: f892 87bd 45f8 a2bd b604 84bd a984 2e3e
00000170: 9b67 da3d 2ac2 8138 5916 0c3e dbf5 67b7
00000180: 8cf7 413e 6a4f 54be efa4 423e 8ee0 c7bb
00000190: 882a 5fbd 6768 293e 6fe9 f7bc 579d 4cbb
000001a0: 97f1 413e 06c9 383e 789d 1eba eb95 193e
000001b0: 45af 1cbe 5807 ffbc 3d0b 75bd f41c 273e
000001c0: 35b6 e4b9 3c71 3abb 0cc1 313e 7575 2b3e
000001d0: 6569 9dbd 89dc 183e f8c7 cabc 3c56 26bd
000001e0: 8522 3b3e b264 1abe dea9 88bc ce0d 023e
000001f0: 6676 423e 8c4a 183e 7324 133e 3cc2 1f3e
-0.20882097 -0.0411118 -0.022911739 0.16439308 -0.006078805 -0.20289695 0.17376557 0.11773605
-0.067866355 0.1422656 -0.16951846 -0.0008825085 -0.0016108351 -0.00067694054 -0.07029066 -0.03117307
-0.027089387 -0.2101176 0.16805749 -0.063847326 0.18472071 -0.038847126 0.18292281 -0.019792836
-0.0097244745 -0.024074607 -0.0045232708 -0.035924252 0.15276788 -0.015137945 0.19503477 -0.0707883
-0.0029373688 0.15442021 0.14460965 0.17479464 0.18573377 -0.019497447 -5.982148e-05 -0.064918295
0.1699449 -0.0049031996 -0.02502747 -0.0032351902 -0.1419406 -0.16961853 -0.17748506 -0.065703765
-0.111122295 -0.08816243 -0.1990908 -0.07574586 -0.029973017 -0.041764826 -0.0074071037 0.12609161
-0.03200534 -0.0055677197 0.1202871 0.17028552 -0.08213605 -0.1507624 0.18397202 -5.255418e-05
0.15169273 -0.07387993 0.16282156 -0.12504229 0.16758217 -0.06540984 -0.05343724 -0.0384862
-0.20779274 -0.017059501 -0.05273556 0.19754519 -0.057913493 -0.0066600475 -0.018235087 -0.016079444
0.16604556 0.18135493 0.16454977 0.10291028 -0.20055532 -0.00012821285 0.13751103 0.13418359
-0.06619829 -0.0795751 -0.06446211 0.17042793 0.106642924 6.187365e-05 0.136804 -1.3825916e-05
0.18942088 -0.20733419 0.1900823 -0.006099767 -0.05448392 0.16543733 -0.030262677 -0.0031221712
0.18939815 0.18045434 -0.00060506864 0.14998595 -0.15301235 -0.031131431 -0.05982517 0.16319638
-0.00043623304 -0.002844884 0.17358798 0.16744025 -0.07686118 0.14927877 -0.024753556 -0.040609583
0.18274887 -0.15077475 -0.016682561 0.12700579 0.18990478 0.14872187 0.14369373 0.15601438

ffn.3.weight f4 [2, 128]
00000000: b226 8a3e a673 013e 16a3 2b3e 2866 5ebe
00000010: 4cc8 7ab3 e62f 7a3e 3716 86be fb1c 45be
00000020: e4eb 7fba d8b1 23be 3061 613e e984 18ba
00000030: 97d1 d23d ecf4 ae3a 82b8 2b3e bdf0 163e
00000040: b32e 053e 882d 8e3e 109f 33be b3aa fe3d
00000050: 8827 3cbe bcf3 103e 8880 68be 83d6 d43d
00000060: 8575 313e 7579 b23d 0427 25bb b259 063e
00000070: ee39 3dbe 7b16 f93d bcd6 56be bbde ff3d
00000080: 5daa c53c 5676 85be 9dc3 75be 78d8 4cbe
00000090: 89b5 50be aa52 303e d3af aa36 b776 143e
000000a0: 67ed 54be 2363 9b39 5772 1c3e e45f c139
000000b0: 28ac 2b3e 61bd 4c3e fff0 6f3e 7540 0d3e
000000c0: 59ad 483e 154a de3c e3b4 603e 4e79 473e
000000d0: 7c89 443e 7d40 d23d 87f3 07b4 764d 3cbe
000000e0: 7f29 163e 69a2 0c3e a07a 32be 9d35 26be
000000f0: 7960 303e 46b7 4a3e 79ad 27be 517f 0c38
00000100: 1cdc 55be 4d45 253e f6dc 36be 8a74 0c3e
00000110: d2c7 27be 0409 263e d27e fb3d 08ba be3d
00000120: 039b 6c3e abd7 163e f349 f33d c86c 4abe
00000130: 7a13 2a3e 68ce 2d3c d77b 073e 01d8 d23d
00000140: 877d 3bbe 711b 77be 0855 92be 76b0 25be
00000150: a5a2 743e a097 72b2 d2c8 05be 1e31 74be
00000160: ad82 2d3e ff08 323e 710a 1e3e f2f0 31be
00000170: 02ef dfbd cb84 ab38 de76 27be c2cb 94b0
00000180: d0ce 37be 81c9 953e 556b 5cbe e582 a333
00000190: 9939 303e 5bee 5bbe 100c 473e 05f0 2a3e
000001a0: 5cb6 38be b514 8bbe d93f e6b1 54b0 2cbe
000001b0: 14fd 1d3e abee d03d 31f4 bb3d 53b6 80be
000001c0: 4c79 47b5 51cc a23d 78ba 4dbe a56d 85be
000001d0: 5a79 d93d 3254 80be 0d86 053e 367e f03d
000001e0: 62af 45be 7645 763e edf2 023e 2a13 dfbd
000001f0: 7a66 28be 759e 81be b199 34be e2b7 38be
00000200: 9031 6ebe 985a 0cbe 3f0e f6bd 904a 243e
00000210: 637d 10b4 0f7e 6cbe fef0 843e ec19 413e
00000220: 2be7 a43a fb73 1d3e f80f 80be 82b6 06bb
00000230: af53 22be 1872 a7ba 6fca 2fbe 6528 dabd
00000240: 77ab 28be 5c37 56be dca1 3f3e bf7f 00be
00000250: 5260 483e 1a25 09be 66d6 343e b476 f8bd
00000260: 5ebd 1ebe c1f5 b1bd a67a 403b ebeb c4bd
00000270: 7c88 083e 3bc3 41be 0042 593e 381b 17be
00000280: 1322 c7bc 2476 653e 66ee 5b3e 02b9 423e
00000290: cd9c 3c3e 2c8a 00be 6880 bc37 1ca4 0abe
000002a0: b744 283e 12b7 af39 0bc1 e3bd 4ead 4cba
000002b0: bcbc 41be aca7 91be a85a 6dbe 57b3 0cbe
000002c0: 6a3a 48be e664 86bd 496d 8fbe 020b f2bd
000002d0: 2f37 2dbe 14c3 c8bd 70de 09b4 d4c8 383e
000002e0: 706c 3ebe 8700 0dbe c9fb 1b3e 9819 153e
000002f0: 0f59 05be 862b 7bbe e5a2 4f3e dbfd a8b8
00000300: 98b4 633e 45c2 01be 4827 3b3e e70b 48be
00000310: be78 793e f29f 3abe b18e 17be a267 cebd
00000320: 9138 84be 354a e0bd cc79 fdbd c4d2 543e
00000330: 897a 26be 5063 2ebc 1085 2dbe d89f 32be
00000340: cd2c 403e ef8b 913e 0c46 753e a2e4 ef3d
00000350: bc81 86be be92 5bb1 9ab3 1f3e a260 763e
00000360: f184 13be f796 25be 7911 1bbe 61ad 413e
00000370: 6fc6 e03d bf51 a7b8 c086 7c3e 8888 d4b3
00000380: 3736 683e c6f2 81be 3cce 383e b3ea 9434
00000390: 03b0 bbbd 9893 0e3e 61e3 42be be6b 2dbe
000003a0: 02f8 653e 37ff 833e 20ee abb3 89b0 803e
000003b0: ce04 72be 88b5 e3bd 6f07 c1bd c349 623e
000003c0: 6cdf 1935 20de a2bd 15e0 493e b55f 863e
000003d0: 14fe 4cbe 3a3d 403e 8efb 0cbe bff2 20be
000003e0: 1c8e 473e 96d6 57be df83 12be e9e2 483e
000003f0: 5218 5c3e 927c 5f3e f3b2 3c3e 9748 3a3e
0.26982647 0.12641773 0.16761431 -0.21718657 -5.838983e-08 0.24432334 -0.26188824 -0.19249336
-0.00097626285 -0.15985811 0.2200973 -0.0005818145 0.10293882 0.0013348139 0.16769603 0.14740272
0.13006096 0.27769113 -0.17541146 0.12434902 -0.18374455 0.14155477 -0.22705281 0.10392477
0.17329986 0.08714572 -0.0025200257 0.13120154 -0.1847913 0.12162491 -0.20980352 0.12493654
0.024129087 -0.26066846 -0.24000402 -0.20004451 -0.2038175 0.17219034 5.0868634e-06 0.14498411
-0.20793687 0.00029637766 0.15277992 0.00036883273 0.16764891 0.19994117 0.23431776 0.1379412
0.19597377 0.027134934 0.21944003 0.19479868 0.19193071 0.102662064 -1.266145e-07 -0.18388924
0.14664267 0.1373383 -0.1742959 -0.1623139 0.17224301 0.19796476 -0.16374768 3.3497174e-05
-0.20884746 0.16139717 -0.17857727 0.13716331 -0.16384819 0.16214377 0.122800484 0.093128264
0.23106007 0.14730708 0.11879339 -0.19768059 0.16608992 0.010608293 0.13230835 0.10295106
-0.18309604 -0.24131562 -0.285805 -0.16180596 0.23890169 -1.41207295e-08 -0.13064888 -0.23846862
0.1694438 0.17386244 0.1543367 -0.1737707 -0.10934259 8.17865e-05 -0.16353938 -1.0826329e-09
-0.17949986 0.29255298 -0.21525319 7.6140886e-08 0.17209472 -0.21477644 0.19438195 0.16693123
-0.18038315 -0.27164236 -6.7011396e-09 -0.16864139 0.15428573 0.10201772 0.09177435 -0.25139102
-7.4309787e-07 0.079491265 -0.20090663 -0.26060215 0.10618849 -0.25064236 0.13039418 0.11742823
-0.19305184 0.24049935 0.12787981 -0.10892327 -0.16445342 -0.25316206 -0.17636754 -0.18038896
-0.23261094 -0.13706434 -0.12014436 0.16044068 -1.345666e-07 -0.23094963 0.25965112 0.18857545
0.00125811 0.15376274 -0.25012183 -0.002055556 -0.15852235 -0.0012775091 -0.17167066 -0.10652236
-0.16471659 -0.20919555 0.18714088 -0.12548731 0.19567993 -0.1339306 0.17659912 -0.12132016
-0.15501925 -0.08689452 0.002936998 -0.0961531 0.13333315 -0.18922131 0.21216583 -0.14756477
-0.02430824 0.22408348 0.2147766 0.19015887 0.1841919 -0.12552708 2.247114e-05 -0.13539165
0.16432463 0.00033515 -0.111208044 -0.0007807807 -0.18919653 -0.28448236 -0.23179114 -0.13740288
-0.19553533 -0.065622136 -0.28013065 -0.11818506 -0.16915582 -0.09802833 -1.2840042e-07 0.1804536
-0.18596053 -0.13769732 0.15232767 0.14560544 -0.13022254 -0.24528322 0.20276983 -8.0581485e-05
0.2223686 -0.12671764 0.18276703 -0.1953579 0.24362466 -0.18225077 -0.14800526 -0.1007836
-0.25824407 -0.10951654 -0.123767465 0.20783526 -0.16257681 -0.010643795 -0.1694529 -0.17443788
0.1876709 0.28427073 0.23952502 0.1171353 -0.26270854 -3.1952108e-09 0.15595856 0.240603
-0.14406182 -0.1617087 -0.15143384 0.18913795 0.10975348 -7.978407e-05 0.24660778 -9.896854e-08
0.22676931 -0.25380534 0.18047422 2.7737914e-07 -0.09164431 0.1392349 -0.1903205 -0.16935632
0.22457889 0.2578065 -8.006123e-08 0.25134686 -0.23634645 -0.11118609 -0.09425246 0.2209845
5.7322063e-07 -0.07952523 0.19714387 0.26244894 -0.20018798 0.18773356 -0.13767835 -0.157176
0.19487804 -0.21077952 -0.14308117 0.1961781 0.21493652 0.21824864 0.18427639 0.18191753

ffn.3.bias f4 [2]
00000000: 3b00 afbe b63b 773e
-0.34179863 0.24143872
